7767517
920 1117
Input            input                    0 1 input
Split            splitncnn_input0         1 3 input input_splitncnn_0 input_splitncnn_1 input_splitncnn_2
MemoryData       /gblocks/gblocks.1/norm/Constant_2_output_0 0 1 /gblocks/gblocks.1/norm/Constant_2_output_0 0=1
MemoryData       /gblocks/gblocks.1/norm/Constant_3_output_0 0 1 /gblocks/gblocks.1/norm/Constant_3_output_0 0=1
MemoryData       /gblocks/gblocks.1/norm/Constant_4_output_0 0 1 /gblocks/gblocks.1/norm/Constant_4_output_0 0=1
MemoryData       /gblocks/gblocks.1/norm/Constant_5_output_0 0 1 /gblocks/gblocks.1/norm/Constant_5_output_0 0=1
MemoryData       /gblocks/gblocks.10/norm/Constant_2_output_0 0 1 /gblocks/gblocks.10/norm/Constant_2_output_0 0=1
MemoryData       /gblocks/gblocks.10/norm/Constant_3_output_0 0 1 /gblocks/gblocks.10/norm/Constant_3_output_0 0=1
MemoryData       /gblocks/gblocks.10/norm/Constant_4_output_0 0 1 /gblocks/gblocks.10/norm/Constant_4_output_0 0=1
MemoryData       /gblocks/gblocks.10/norm/Constant_5_output_0 0 1 /gblocks/gblocks.10/norm/Constant_5_output_0 0=1
MemoryData       /gblocks/gblocks.11/norm/Constant_2_output_0 0 1 /gblocks/gblocks.11/norm/Constant_2_output_0 0=1
MemoryData       /gblocks/gblocks.11/norm/Constant_3_output_0 0 1 /gblocks/gblocks.11/norm/Constant_3_output_0 0=1
MemoryData       /gblocks/gblocks.11/norm/Constant_4_output_0 0 1 /gblocks/gblocks.11/norm/Constant_4_output_0 0=1
MemoryData       /gblocks/gblocks.11/norm/Constant_5_output_0 0 1 /gblocks/gblocks.11/norm/Constant_5_output_0 0=1
MemoryData       /gblocks/gblocks.12/norm/Constant_2_output_0 0 1 /gblocks/gblocks.12/norm/Constant_2_output_0 0=1
MemoryData       /gblocks/gblocks.12/norm/Constant_3_output_0 0 1 /gblocks/gblocks.12/norm/Constant_3_output_0 0=1
MemoryData       /gblocks/gblocks.12/norm/Constant_4_output_0 0 1 /gblocks/gblocks.12/norm/Constant_4_output_0 0=1
MemoryData       /gblocks/gblocks.12/norm/Constant_5_output_0 0 1 /gblocks/gblocks.12/norm/Constant_5_output_0 0=1
MemoryData       /gblocks/gblocks.13/norm/Constant_2_output_0 0 1 /gblocks/gblocks.13/norm/Constant_2_output_0 0=1
MemoryData       /gblocks/gblocks.13/norm/Constant_3_output_0 0 1 /gblocks/gblocks.13/norm/Constant_3_output_0 0=1
MemoryData       /gblocks/gblocks.13/norm/Constant_4_output_0 0 1 /gblocks/gblocks.13/norm/Constant_4_output_0 0=1
MemoryData       /gblocks/gblocks.13/norm/Constant_5_output_0 0 1 /gblocks/gblocks.13/norm/Constant_5_output_0 0=1
MemoryData       /gblocks/gblocks.14/norm/Constant_2_output_0 0 1 /gblocks/gblocks.14/norm/Constant_2_output_0 0=1
MemoryData       /gblocks/gblocks.14/norm/Constant_3_output_0 0 1 /gblocks/gblocks.14/norm/Constant_3_output_0 0=1
MemoryData       /gblocks/gblocks.14/norm/Constant_4_output_0 0 1 /gblocks/gblocks.14/norm/Constant_4_output_0 0=1
MemoryData       /gblocks/gblocks.14/norm/Constant_5_output_0 0 1 /gblocks/gblocks.14/norm/Constant_5_output_0 0=1
MemoryData       /gblocks/gblocks.15/norm/Constant_2_output_0 0 1 /gblocks/gblocks.15/norm/Constant_2_output_0 0=1
MemoryData       /gblocks/gblocks.15/norm/Constant_3_output_0 0 1 /gblocks/gblocks.15/norm/Constant_3_output_0 0=1
MemoryData       /gblocks/gblocks.15/norm/Constant_4_output_0 0 1 /gblocks/gblocks.15/norm/Constant_4_output_0 0=1
MemoryData       /gblocks/gblocks.15/norm/Constant_5_output_0 0 1 /gblocks/gblocks.15/norm/Constant_5_output_0 0=1
MemoryData       /gblocks/gblocks.16/norm/Constant_2_output_0 0 1 /gblocks/gblocks.16/norm/Constant_2_output_0 0=1
MemoryData       /gblocks/gblocks.16/norm/Constant_3_output_0 0 1 /gblocks/gblocks.16/norm/Constant_3_output_0 0=1
MemoryData       /gblocks/gblocks.16/norm/Constant_4_output_0 0 1 /gblocks/gblocks.16/norm/Constant_4_output_0 0=1
MemoryData       /gblocks/gblocks.16/norm/Constant_5_output_0 0 1 /gblocks/gblocks.16/norm/Constant_5_output_0 0=1
MemoryData       /gblocks/gblocks.17/norm/Constant_2_output_0 0 1 /gblocks/gblocks.17/norm/Constant_2_output_0 0=1
MemoryData       /gblocks/gblocks.17/norm/Constant_3_output_0 0 1 /gblocks/gblocks.17/norm/Constant_3_output_0 0=1
MemoryData       /gblocks/gblocks.17/norm/Constant_4_output_0 0 1 /gblocks/gblocks.17/norm/Constant_4_output_0 0=1
MemoryData       /gblocks/gblocks.17/norm/Constant_5_output_0 0 1 /gblocks/gblocks.17/norm/Constant_5_output_0 0=1
MemoryData       /gblocks/gblocks.18/norm/Constant_2_output_0 0 1 /gblocks/gblocks.18/norm/Constant_2_output_0 0=1
MemoryData       /gblocks/gblocks.18/norm/Constant_3_output_0 0 1 /gblocks/gblocks.18/norm/Constant_3_output_0 0=1
MemoryData       /gblocks/gblocks.18/norm/Constant_4_output_0 0 1 /gblocks/gblocks.18/norm/Constant_4_output_0 0=1
MemoryData       /gblocks/gblocks.18/norm/Constant_5_output_0 0 1 /gblocks/gblocks.18/norm/Constant_5_output_0 0=1
MemoryData       /gblocks/gblocks.19/norm/Constant_2_output_0 0 1 /gblocks/gblocks.19/norm/Constant_2_output_0 0=1
MemoryData       /gblocks/gblocks.19/norm/Constant_3_output_0 0 1 /gblocks/gblocks.19/norm/Constant_3_output_0 0=1
MemoryData       /gblocks/gblocks.19/norm/Constant_4_output_0 0 1 /gblocks/gblocks.19/norm/Constant_4_output_0 0=1
MemoryData       /gblocks/gblocks.19/norm/Constant_5_output_0 0 1 /gblocks/gblocks.19/norm/Constant_5_output_0 0=1
MemoryData       /gblocks/gblocks.2/norm/Constant_2_output_0 0 1 /gblocks/gblocks.2/norm/Constant_2_output_0 0=1
MemoryData       /gblocks/gblocks.2/norm/Constant_3_output_0 0 1 /gblocks/gblocks.2/norm/Constant_3_output_0 0=1
MemoryData       /gblocks/gblocks.2/norm/Constant_4_output_0 0 1 /gblocks/gblocks.2/norm/Constant_4_output_0 0=1
MemoryData       /gblocks/gblocks.2/norm/Constant_5_output_0 0 1 /gblocks/gblocks.2/norm/Constant_5_output_0 0=1
MemoryData       /gblocks/gblocks.20/norm/Constant_2_output_0 0 1 /gblocks/gblocks.20/norm/Constant_2_output_0 0=1
MemoryData       /gblocks/gblocks.20/norm/Constant_3_output_0 0 1 /gblocks/gblocks.20/norm/Constant_3_output_0 0=1
MemoryData       /gblocks/gblocks.20/norm/Constant_4_output_0 0 1 /gblocks/gblocks.20/norm/Constant_4_output_0 0=1
MemoryData       /gblocks/gblocks.20/norm/Constant_5_output_0 0 1 /gblocks/gblocks.20/norm/Constant_5_output_0 0=1
MemoryData       /gblocks/gblocks.21/norm/Constant_2_output_0 0 1 /gblocks/gblocks.21/norm/Constant_2_output_0 0=1
MemoryData       /gblocks/gblocks.21/norm/Constant_3_output_0 0 1 /gblocks/gblocks.21/norm/Constant_3_output_0 0=1
MemoryData       /gblocks/gblocks.21/norm/Constant_4_output_0 0 1 /gblocks/gblocks.21/norm/Constant_4_output_0 0=1
MemoryData       /gblocks/gblocks.21/norm/Constant_5_output_0 0 1 /gblocks/gblocks.21/norm/Constant_5_output_0 0=1
MemoryData       /gblocks/gblocks.22/norm/Constant_2_output_0 0 1 /gblocks/gblocks.22/norm/Constant_2_output_0 0=1
MemoryData       /gblocks/gblocks.22/norm/Constant_3_output_0 0 1 /gblocks/gblocks.22/norm/Constant_3_output_0 0=1
MemoryData       /gblocks/gblocks.22/norm/Constant_4_output_0 0 1 /gblocks/gblocks.22/norm/Constant_4_output_0 0=1
MemoryData       /gblocks/gblocks.22/norm/Constant_5_output_0 0 1 /gblocks/gblocks.22/norm/Constant_5_output_0 0=1
MemoryData       /gblocks/gblocks.23/norm/Constant_2_output_0 0 1 /gblocks/gblocks.23/norm/Constant_2_output_0 0=1
MemoryData       /gblocks/gblocks.23/norm/Constant_3_output_0 0 1 /gblocks/gblocks.23/norm/Constant_3_output_0 0=1
MemoryData       /gblocks/gblocks.23/norm/Constant_4_output_0 0 1 /gblocks/gblocks.23/norm/Constant_4_output_0 0=1
MemoryData       /gblocks/gblocks.23/norm/Constant_5_output_0 0 1 /gblocks/gblocks.23/norm/Constant_5_output_0 0=1
MemoryData       /gblocks/gblocks.24/norm/Constant_2_output_0 0 1 /gblocks/gblocks.24/norm/Constant_2_output_0 0=1
MemoryData       /gblocks/gblocks.24/norm/Constant_3_output_0 0 1 /gblocks/gblocks.24/norm/Constant_3_output_0 0=1
MemoryData       /gblocks/gblocks.24/norm/Constant_4_output_0 0 1 /gblocks/gblocks.24/norm/Constant_4_output_0 0=1
MemoryData       /gblocks/gblocks.24/norm/Constant_5_output_0 0 1 /gblocks/gblocks.24/norm/Constant_5_output_0 0=1
MemoryData       /gblocks/gblocks.3/norm/Constant_2_output_0 0 1 /gblocks/gblocks.3/norm/Constant_2_output_0 0=1
MemoryData       /gblocks/gblocks.3/norm/Constant_3_output_0 0 1 /gblocks/gblocks.3/norm/Constant_3_output_0 0=1
MemoryData       /gblocks/gblocks.3/norm/Constant_4_output_0 0 1 /gblocks/gblocks.3/norm/Constant_4_output_0 0=1
MemoryData       /gblocks/gblocks.3/norm/Constant_5_output_0 0 1 /gblocks/gblocks.3/norm/Constant_5_output_0 0=1
MemoryData       /gblocks/gblocks.4/norm/Constant_2_output_0 0 1 /gblocks/gblocks.4/norm/Constant_2_output_0 0=1
MemoryData       /gblocks/gblocks.4/norm/Constant_3_output_0 0 1 /gblocks/gblocks.4/norm/Constant_3_output_0 0=1
MemoryData       /gblocks/gblocks.4/norm/Constant_4_output_0 0 1 /gblocks/gblocks.4/norm/Constant_4_output_0 0=1
MemoryData       /gblocks/gblocks.4/norm/Constant_5_output_0 0 1 /gblocks/gblocks.4/norm/Constant_5_output_0 0=1
MemoryData       /gblocks/gblocks.5/norm/Constant_2_output_0 0 1 /gblocks/gblocks.5/norm/Constant_2_output_0 0=1
MemoryData       /gblocks/gblocks.5/norm/Constant_3_output_0 0 1 /gblocks/gblocks.5/norm/Constant_3_output_0 0=1
MemoryData       /gblocks/gblocks.5/norm/Constant_4_output_0 0 1 /gblocks/gblocks.5/norm/Constant_4_output_0 0=1
MemoryData       /gblocks/gblocks.5/norm/Constant_5_output_0 0 1 /gblocks/gblocks.5/norm/Constant_5_output_0 0=1
MemoryData       /gblocks/gblocks.6/norm/Constant_2_output_0 0 1 /gblocks/gblocks.6/norm/Constant_2_output_0 0=1
MemoryData       /gblocks/gblocks.6/norm/Constant_3_output_0 0 1 /gblocks/gblocks.6/norm/Constant_3_output_0 0=1
MemoryData       /gblocks/gblocks.6/norm/Constant_4_output_0 0 1 /gblocks/gblocks.6/norm/Constant_4_output_0 0=1
MemoryData       /gblocks/gblocks.6/norm/Constant_5_output_0 0 1 /gblocks/gblocks.6/norm/Constant_5_output_0 0=1
MemoryData       /gblocks/gblocks.7/norm/Constant_2_output_0 0 1 /gblocks/gblocks.7/norm/Constant_2_output_0 0=1
MemoryData       /gblocks/gblocks.7/norm/Constant_3_output_0 0 1 /gblocks/gblocks.7/norm/Constant_3_output_0 0=1
MemoryData       /gblocks/gblocks.7/norm/Constant_4_output_0 0 1 /gblocks/gblocks.7/norm/Constant_4_output_0 0=1
MemoryData       /gblocks/gblocks.7/norm/Constant_5_output_0 0 1 /gblocks/gblocks.7/norm/Constant_5_output_0 0=1
MemoryData       /gblocks/gblocks.8/norm/Constant_2_output_0 0 1 /gblocks/gblocks.8/norm/Constant_2_output_0 0=1
MemoryData       /gblocks/gblocks.8/norm/Constant_3_output_0 0 1 /gblocks/gblocks.8/norm/Constant_3_output_0 0=1
MemoryData       /gblocks/gblocks.8/norm/Constant_4_output_0 0 1 /gblocks/gblocks.8/norm/Constant_4_output_0 0=1
MemoryData       /gblocks/gblocks.8/norm/Constant_5_output_0 0 1 /gblocks/gblocks.8/norm/Constant_5_output_0 0=1
MemoryData       /gblocks/gblocks.9/norm/Constant_2_output_0 0 1 /gblocks/gblocks.9/norm/Constant_2_output_0 0=1
MemoryData       /gblocks/gblocks.9/norm/Constant_3_output_0 0 1 /gblocks/gblocks.9/norm/Constant_3_output_0 0=1
MemoryData       /gblocks/gblocks.9/norm/Constant_4_output_0 0 1 /gblocks/gblocks.9/norm/Constant_4_output_0 0=1
MemoryData       /gblocks/gblocks.9/norm/Constant_5_output_0 0 1 /gblocks/gblocks.9/norm/Constant_5_output_0 0=1
MemoryData       gblocks.1.norm.bias      0 1 gblocks.1.norm.bias 0=64
MemoryData       gblocks.1.norm.weight    0 1 gblocks.1.norm.weight 0=64
MemoryData       gblocks.10.norm.bias     0 1 gblocks.10.norm.bias 0=64
MemoryData       gblocks.10.norm.weight   0 1 gblocks.10.norm.weight 0=64
MemoryData       gblocks.11.norm.bias     0 1 gblocks.11.norm.bias 0=64
MemoryData       gblocks.11.norm.weight   0 1 gblocks.11.norm.weight 0=64
MemoryData       gblocks.12.norm.bias     0 1 gblocks.12.norm.bias 0=64
MemoryData       gblocks.12.norm.weight   0 1 gblocks.12.norm.weight 0=64
MemoryData       gblocks.13.norm.bias     0 1 gblocks.13.norm.bias 0=64
MemoryData       gblocks.13.norm.weight   0 1 gblocks.13.norm.weight 0=64
MemoryData       gblocks.14.norm.bias     0 1 gblocks.14.norm.bias 0=64
MemoryData       gblocks.14.norm.weight   0 1 gblocks.14.norm.weight 0=64
MemoryData       gblocks.15.norm.bias     0 1 gblocks.15.norm.bias 0=64
MemoryData       gblocks.15.norm.weight   0 1 gblocks.15.norm.weight 0=64
MemoryData       gblocks.16.norm.bias     0 1 gblocks.16.norm.bias 0=64
MemoryData       gblocks.16.norm.weight   0 1 gblocks.16.norm.weight 0=64
MemoryData       gblocks.17.norm.bias     0 1 gblocks.17.norm.bias 0=64
MemoryData       gblocks.17.norm.weight   0 1 gblocks.17.norm.weight 0=64
MemoryData       gblocks.18.norm.bias     0 1 gblocks.18.norm.bias 0=64
MemoryData       gblocks.18.norm.weight   0 1 gblocks.18.norm.weight 0=64
MemoryData       gblocks.19.norm.bias     0 1 gblocks.19.norm.bias 0=64
MemoryData       gblocks.19.norm.weight   0 1 gblocks.19.norm.weight 0=64
MemoryData       gblocks.2.norm.bias      0 1 gblocks.2.norm.bias 0=64
MemoryData       gblocks.2.norm.weight    0 1 gblocks.2.norm.weight 0=64
MemoryData       gblocks.20.norm.bias     0 1 gblocks.20.norm.bias 0=64
MemoryData       gblocks.20.norm.weight   0 1 gblocks.20.norm.weight 0=64
MemoryData       gblocks.21.norm.bias     0 1 gblocks.21.norm.bias 0=64
MemoryData       gblocks.21.norm.weight   0 1 gblocks.21.norm.weight 0=64
MemoryData       gblocks.22.norm.bias     0 1 gblocks.22.norm.bias 0=64
MemoryData       gblocks.22.norm.weight   0 1 gblocks.22.norm.weight 0=64
MemoryData       gblocks.23.norm.bias     0 1 gblocks.23.norm.bias 0=64
MemoryData       gblocks.23.norm.weight   0 1 gblocks.23.norm.weight 0=64
MemoryData       gblocks.24.norm.bias     0 1 gblocks.24.norm.bias 0=64
MemoryData       gblocks.24.norm.weight   0 1 gblocks.24.norm.weight 0=64
MemoryData       gblocks.3.norm.bias      0 1 gblocks.3.norm.bias 0=64
MemoryData       gblocks.3.norm.weight    0 1 gblocks.3.norm.weight 0=64
MemoryData       gblocks.4.norm.bias      0 1 gblocks.4.norm.bias 0=64
MemoryData       gblocks.4.norm.weight    0 1 gblocks.4.norm.weight 0=64
MemoryData       gblocks.5.norm.bias      0 1 gblocks.5.norm.bias 0=64
MemoryData       gblocks.5.norm.weight    0 1 gblocks.5.norm.weight 0=64
MemoryData       gblocks.6.norm.bias      0 1 gblocks.6.norm.bias 0=64
MemoryData       gblocks.6.norm.weight    0 1 gblocks.6.norm.weight 0=64
MemoryData       gblocks.7.norm.bias      0 1 gblocks.7.norm.bias 0=64
MemoryData       gblocks.7.norm.weight    0 1 gblocks.7.norm.weight 0=64
MemoryData       gblocks.8.norm.bias      0 1 gblocks.8.norm.bias 0=64
MemoryData       gblocks.8.norm.weight    0 1 gblocks.8.norm.weight 0=64
MemoryData       gblocks.9.norm.bias      0 1 gblocks.9.norm.bias 0=64
MemoryData       gblocks.9.norm.weight    0 1 gblocks.9.norm.weight 0=64
MemoryData       onnx::Split_230          0 1 onnx::Split_230 0=3
Split            splitncnn_0              1 24 onnx::Split_230 onnx::Split_230_splitncnn_0 onnx::Split_230_splitncnn_1 onnx::Split_230_splitncnn_2 onnx::Split_230_splitncnn_3 onnx::Split_230_splitncnn_4 onnx::Split_230_splitncnn_5 onnx::Split_230_splitncnn_6 onnx::Split_230_splitncnn_7 onnx::Split_230_splitncnn_8 onnx::Split_230_splitncnn_9 onnx::Split_230_splitncnn_10 onnx::Split_230_splitncnn_11 onnx::Split_230_splitncnn_12 onnx::Split_230_splitncnn_13 onnx::Split_230_splitncnn_14 onnx::Split_230_splitncnn_15 onnx::Split_230_splitncnn_16 onnx::Split_230_splitncnn_17 onnx::Split_230_splitncnn_18 onnx::Split_230_splitncnn_19 onnx::Split_230_splitncnn_20 onnx::Split_230_splitncnn_21 onnx::Split_230_splitncnn_22 onnx::Split_230_splitncnn_23
Convolution      /gblocks/gblocks.0/Conv  1 1 input_splitncnn_2 /gblocks/gblocks.0/Conv_output_0 0=64 1=3 11=3 2=1 12=1 3=1 13=1 4=1 14=1 15=1 16=1 5=1 6=1728
Split            splitncnn_1              1 3 /gblocks/gblocks.0/Conv_output_0 /gblocks/gblocks.0/Conv_output_0_splitncnn_0 /gblocks/gblocks.0/Conv_output_0_splitncnn_1 /gblocks/gblocks.0/Conv_output_0_splitncnn_2
Reduction        /gblocks/gblocks.1/norm/ReduceMean 1 1 /gblocks/gblocks.0/Conv_output_0_splitncnn_2 /gblocks/gblocks.1/norm/ReduceMean_output_0 0=3 1=0 -23303=1,0 4=1 5=1
BinaryOp         /gblocks/gblocks.1/norm/Sub 2 1 /gblocks/gblocks.0/Conv_output_0_splitncnn_1 /gblocks/gblocks.1/norm/ReduceMean_output_0 /gblocks/gblocks.1/norm/Sub_output_0 0=1
Split            splitncnn_2              1 2 /gblocks/gblocks.1/norm/Sub_output_0 /gblocks/gblocks.1/norm/Sub_output_0_splitncnn_0 /gblocks/gblocks.1/norm/Sub_output_0_splitncnn_1
BinaryOp         /gblocks/gblocks.1/norm/Pow 1 1 /gblocks/gblocks.1/norm/Sub_output_0_splitncnn_1 /gblocks/gblocks.1/norm/Pow_output_0 0=6 1=1 2=2.000000e+00
Reduction        /gblocks/gblocks.1/norm/ReduceMean_1 1 1 /gblocks/gblocks.1/norm/Pow_output_0 /gblocks/gblocks.1/norm/ReduceMean_1_output_0 0=3 1=0 -23303=1,0 4=1 5=1
BinaryOp         /gblocks/gblocks.1/norm/Add 1 1 /gblocks/gblocks.1/norm/ReduceMean_1_output_0 /gblocks/gblocks.1/norm/Add_output_0 0=0 1=1 2=1.000000e-06
UnaryOp          /gblocks/gblocks.1/norm/Sqrt 1 1 /gblocks/gblocks.1/norm/Add_output_0 /gblocks/gblocks.1/norm/Sqrt_output_0 0=5
BinaryOp         /gblocks/gblocks.1/norm/Div 2 1 /gblocks/gblocks.1/norm/Sub_output_0_splitncnn_0 /gblocks/gblocks.1/norm/Sqrt_output_0 /gblocks/gblocks.1/norm/Div_output_0 0=3
ExpandDims       /gblocks/gblocks.1/norm/Unsqueeze 2 1 gblocks.1.norm.weight /gblocks/gblocks.1/norm/Constant_2_output_0 /gblocks/gblocks.1/norm/Unsqueeze_output_0 -23303=0
ExpandDims       /gblocks/gblocks.1/norm/Unsqueeze_1 2 1 /gblocks/gblocks.1/norm/Unsqueeze_output_0 /gblocks/gblocks.1/norm/Constant_3_output_0 /gblocks/gblocks.1/norm/Unsqueeze_1_output_0 -23303=0
BinaryOp         /gblocks/gblocks.1/norm/Mul 2 1 /gblocks/gblocks.1/norm/Unsqueeze_1_output_0 /gblocks/gblocks.1/norm/Div_output_0 /gblocks/gblocks.1/norm/Mul_output_0 0=2
ExpandDims       /gblocks/gblocks.1/norm/Unsqueeze_2 2 1 gblocks.1.norm.bias /gblocks/gblocks.1/norm/Constant_4_output_0 /gblocks/gblocks.1/norm/Unsqueeze_2_output_0 -23303=0
ExpandDims       /gblocks/gblocks.1/norm/Unsqueeze_3 2 1 /gblocks/gblocks.1/norm/Unsqueeze_2_output_0 /gblocks/gblocks.1/norm/Constant_5_output_0 /gblocks/gblocks.1/norm/Unsqueeze_3_output_0 -23303=0
BinaryOp         /gblocks/gblocks.1/norm/Add_1 2 1 /gblocks/gblocks.1/norm/Mul_output_0 /gblocks/gblocks.1/norm/Unsqueeze_3_output_0 /gblocks/gblocks.1/norm/Add_1_output_0 0=0
Convolution      /gblocks/gblocks.1/fc1/Conv 1 1 /gblocks/gblocks.1/norm/Add_1_output_0 /gblocks/gblocks.1/fc1/Conv_output_0 0=192 1=3 11=3 2=1 12=1 3=1 13=1 4=1 14=1 15=1 16=1 5=1 6=110592
Slice            /gblocks/gblocks.1/Split 2 3 /gblocks/gblocks.1/fc1/Conv_output_0 onnx::Split_230_splitncnn_23 /gblocks/gblocks.1/Split_output_0 /gblocks/gblocks.1/Split_output_1 /gblocks/gblocks.1/Split_output_2 -23300=3,-233,-233,-233 1=0
Split            splitncnn_3              1 2 /gblocks/gblocks.1/Split_output_0 /gblocks/gblocks.1/Split_output_0_splitncnn_0 /gblocks/gblocks.1/Split_output_0_splitncnn_1
ConvolutionDepthWise /gblocks/gblocks.1/conv/Conv 1 1 /gblocks/gblocks.1/Split_output_2 /gblocks/gblocks.1/conv/Conv_output_0 0=64 1=7 11=7 2=1 12=1 3=1 13=1 4=3 14=3 15=3 16=3 5=1 6=3136 7=64
Softplus         /gblocks/gblocks.1/act/Softplus 1 1 /gblocks/gblocks.1/Split_output_0_splitncnn_1 /gblocks/gblocks.1/act/Softplus_output_0
UnaryOp          /gblocks/gblocks.1/act/Tanh 1 1 /gblocks/gblocks.1/act/Softplus_output_0 /gblocks/gblocks.1/act/Tanh_output_0 0=16
BinaryOp         /gblocks/gblocks.1/act/Mul 2 1 /gblocks/gblocks.1/Split_output_0_splitncnn_0 /gblocks/gblocks.1/act/Tanh_output_0 /gblocks/gblocks.1/act/Mul_output_0 0=2
Concat           /gblocks/gblocks.1/Concat 2 1 /gblocks/gblocks.1/Split_output_1 /gblocks/gblocks.1/conv/Conv_output_0 /gblocks/gblocks.1/Concat_output_0 0=0
BinaryOp         /gblocks/gblocks.1/Mul   2 1 /gblocks/gblocks.1/act/Mul_output_0 /gblocks/gblocks.1/Concat_output_0 /gblocks/gblocks.1/Mul_output_0 0=2
Convolution      /gblocks/gblocks.1/fc2/Conv 1 1 /gblocks/gblocks.1/Mul_output_0 /gblocks/gblocks.1/fc2/Conv_output_0 0=64 1=3 11=3 2=1 12=1 3=1 13=1 4=1 14=1 15=1 16=1 5=1 6=55296
Split            splitncnn_4              1 2 /gblocks/gblocks.1/fc2/Conv_output_0 /gblocks/gblocks.1/fc2/Conv_output_0_splitncnn_0 /gblocks/gblocks.1/fc2/Conv_output_0_splitncnn_1
Softplus         /gblocks/gblocks.1/act_1/Softplus 1 1 /gblocks/gblocks.1/fc2/Conv_output_0_splitncnn_1 /gblocks/gblocks.1/act_1/Softplus_output_0
UnaryOp          /gblocks/gblocks.1/act_1/Tanh 1 1 /gblocks/gblocks.1/act_1/Softplus_output_0 /gblocks/gblocks.1/act_1/Tanh_output_0 0=16
BinaryOp         /gblocks/gblocks.1/act_1/Mul 2 1 /gblocks/gblocks.1/fc2/Conv_output_0_splitncnn_0 /gblocks/gblocks.1/act_1/Tanh_output_0 /gblocks/gblocks.1/act_1/Mul_output_0 0=2
BinaryOp         /gblocks/gblocks.1/Sub   1 1 /gblocks/gblocks.0/Conv_output_0_splitncnn_0 /gblocks/gblocks.1/Sub_output_0 0=1 1=1 2=5.000000e-01
BinaryOp         /gblocks/gblocks.1/Add   2 1 /gblocks/gblocks.1/act_1/Mul_output_0 /gblocks/gblocks.1/Sub_output_0 /gblocks/gblocks.1/Add_output_0 0=0
Split            splitncnn_5              1 3 /gblocks/gblocks.1/Add_output_0 /gblocks/gblocks.1/Add_output_0_splitncnn_0 /gblocks/gblocks.1/Add_output_0_splitncnn_1 /gblocks/gblocks.1/Add_output_0_splitncnn_2
Reduction        /gblocks/gblocks.2/norm/ReduceMean 1 1 /gblocks/gblocks.1/Add_output_0_splitncnn_2 /gblocks/gblocks.2/norm/ReduceMean_output_0 0=3 1=0 -23303=1,0 4=1 5=1
BinaryOp         /gblocks/gblocks.2/norm/Sub 2 1 /gblocks/gblocks.1/Add_output_0_splitncnn_1 /gblocks/gblocks.2/norm/ReduceMean_output_0 /gblocks/gblocks.2/norm/Sub_output_0 0=1
Split            splitncnn_6              1 2 /gblocks/gblocks.2/norm/Sub_output_0 /gblocks/gblocks.2/norm/Sub_output_0_splitncnn_0 /gblocks/gblocks.2/norm/Sub_output_0_splitncnn_1
BinaryOp         /gblocks/gblocks.2/norm/Pow 1 1 /gblocks/gblocks.2/norm/Sub_output_0_splitncnn_1 /gblocks/gblocks.2/norm/Pow_output_0 0=6 1=1 2=2.000000e+00
Reduction        /gblocks/gblocks.2/norm/ReduceMean_1 1 1 /gblocks/gblocks.2/norm/Pow_output_0 /gblocks/gblocks.2/norm/ReduceMean_1_output_0 0=3 1=0 -23303=1,0 4=1 5=1
BinaryOp         /gblocks/gblocks.2/norm/Add 1 1 /gblocks/gblocks.2/norm/ReduceMean_1_output_0 /gblocks/gblocks.2/norm/Add_output_0 0=0 1=1 2=1.000000e-06
UnaryOp          /gblocks/gblocks.2/norm/Sqrt 1 1 /gblocks/gblocks.2/norm/Add_output_0 /gblocks/gblocks.2/norm/Sqrt_output_0 0=5
BinaryOp         /gblocks/gblocks.2/norm/Div 2 1 /gblocks/gblocks.2/norm/Sub_output_0_splitncnn_0 /gblocks/gblocks.2/norm/Sqrt_output_0 /gblocks/gblocks.2/norm/Div_output_0 0=3
ExpandDims       /gblocks/gblocks.2/norm/Unsqueeze 2 1 gblocks.2.norm.weight /gblocks/gblocks.2/norm/Constant_2_output_0 /gblocks/gblocks.2/norm/Unsqueeze_output_0 -23303=0
ExpandDims       /gblocks/gblocks.2/norm/Unsqueeze_1 2 1 /gblocks/gblocks.2/norm/Unsqueeze_output_0 /gblocks/gblocks.2/norm/Constant_3_output_0 /gblocks/gblocks.2/norm/Unsqueeze_1_output_0 -23303=0
BinaryOp         /gblocks/gblocks.2/norm/Mul 2 1 /gblocks/gblocks.2/norm/Unsqueeze_1_output_0 /gblocks/gblocks.2/norm/Div_output_0 /gblocks/gblocks.2/norm/Mul_output_0 0=2
ExpandDims       /gblocks/gblocks.2/norm/Unsqueeze_2 2 1 gblocks.2.norm.bias /gblocks/gblocks.2/norm/Constant_4_output_0 /gblocks/gblocks.2/norm/Unsqueeze_2_output_0 -23303=0
ExpandDims       /gblocks/gblocks.2/norm/Unsqueeze_3 2 1 /gblocks/gblocks.2/norm/Unsqueeze_2_output_0 /gblocks/gblocks.2/norm/Constant_5_output_0 /gblocks/gblocks.2/norm/Unsqueeze_3_output_0 -23303=0
BinaryOp         /gblocks/gblocks.2/norm/Add_1 2 1 /gblocks/gblocks.2/norm/Mul_output_0 /gblocks/gblocks.2/norm/Unsqueeze_3_output_0 /gblocks/gblocks.2/norm/Add_1_output_0 0=0
Convolution      /gblocks/gblocks.2/fc1/Conv 1 1 /gblocks/gblocks.2/norm/Add_1_output_0 /gblocks/gblocks.2/fc1/Conv_output_0 0=192 1=3 11=3 2=1 12=1 3=1 13=1 4=1 14=1 15=1 16=1 5=1 6=110592
Slice            /gblocks/gblocks.2/Split 2 3 /gblocks/gblocks.2/fc1/Conv_output_0 onnx::Split_230_splitncnn_22 /gblocks/gblocks.2/Split_output_0 /gblocks/gblocks.2/Split_output_1 /gblocks/gblocks.2/Split_output_2 -23300=3,-233,-233,-233 1=0
Split            splitncnn_7              1 2 /gblocks/gblocks.2/Split_output_0 /gblocks/gblocks.2/Split_output_0_splitncnn_0 /gblocks/gblocks.2/Split_output_0_splitncnn_1
ConvolutionDepthWise /gblocks/gblocks.2/conv/Conv 1 1 /gblocks/gblocks.2/Split_output_2 /gblocks/gblocks.2/conv/Conv_output_0 0=64 1=7 11=7 2=1 12=1 3=1 13=1 4=3 14=3 15=3 16=3 5=1 6=3136 7=64
Softplus         /gblocks/gblocks.2/act/Softplus 1 1 /gblocks/gblocks.2/Split_output_0_splitncnn_1 /gblocks/gblocks.2/act/Softplus_output_0
UnaryOp          /gblocks/gblocks.2/act/Tanh 1 1 /gblocks/gblocks.2/act/Softplus_output_0 /gblocks/gblocks.2/act/Tanh_output_0 0=16
BinaryOp         /gblocks/gblocks.2/act/Mul 2 1 /gblocks/gblocks.2/Split_output_0_splitncnn_0 /gblocks/gblocks.2/act/Tanh_output_0 /gblocks/gblocks.2/act/Mul_output_0 0=2
Concat           /gblocks/gblocks.2/Concat 2 1 /gblocks/gblocks.2/Split_output_1 /gblocks/gblocks.2/conv/Conv_output_0 /gblocks/gblocks.2/Concat_output_0 0=0
BinaryOp         /gblocks/gblocks.2/Mul   2 1 /gblocks/gblocks.2/act/Mul_output_0 /gblocks/gblocks.2/Concat_output_0 /gblocks/gblocks.2/Mul_output_0 0=2
Convolution      /gblocks/gblocks.2/fc2/Conv 1 1 /gblocks/gblocks.2/Mul_output_0 /gblocks/gblocks.2/fc2/Conv_output_0 0=64 1=3 11=3 2=1 12=1 3=1 13=1 4=1 14=1 15=1 16=1 5=1 6=55296
Split            splitncnn_8              1 2 /gblocks/gblocks.2/fc2/Conv_output_0 /gblocks/gblocks.2/fc2/Conv_output_0_splitncnn_0 /gblocks/gblocks.2/fc2/Conv_output_0_splitncnn_1
Softplus         /gblocks/gblocks.2/act_1/Softplus 1 1 /gblocks/gblocks.2/fc2/Conv_output_0_splitncnn_1 /gblocks/gblocks.2/act_1/Softplus_output_0
UnaryOp          /gblocks/gblocks.2/act_1/Tanh 1 1 /gblocks/gblocks.2/act_1/Softplus_output_0 /gblocks/gblocks.2/act_1/Tanh_output_0 0=16
BinaryOp         /gblocks/gblocks.2/act_1/Mul 2 1 /gblocks/gblocks.2/fc2/Conv_output_0_splitncnn_0 /gblocks/gblocks.2/act_1/Tanh_output_0 /gblocks/gblocks.2/act_1/Mul_output_0 0=2
BinaryOp         /gblocks/gblocks.2/Sub   1 1 /gblocks/gblocks.1/Add_output_0_splitncnn_0 /gblocks/gblocks.2/Sub_output_0 0=1 1=1 2=5.000000e-01
BinaryOp         /gblocks/gblocks.2/Add   2 1 /gblocks/gblocks.2/act_1/Mul_output_0 /gblocks/gblocks.2/Sub_output_0 /gblocks/gblocks.2/Add_output_0 0=0
Split            splitncnn_9              1 3 /gblocks/gblocks.2/Add_output_0 /gblocks/gblocks.2/Add_output_0_splitncnn_0 /gblocks/gblocks.2/Add_output_0_splitncnn_1 /gblocks/gblocks.2/Add_output_0_splitncnn_2
Reduction        /gblocks/gblocks.3/norm/ReduceMean 1 1 /gblocks/gblocks.2/Add_output_0_splitncnn_2 /gblocks/gblocks.3/norm/ReduceMean_output_0 0=3 1=0 -23303=1,0 4=1 5=1
BinaryOp         /gblocks/gblocks.3/norm/Sub 2 1 /gblocks/gblocks.2/Add_output_0_splitncnn_1 /gblocks/gblocks.3/norm/ReduceMean_output_0 /gblocks/gblocks.3/norm/Sub_output_0 0=1
Split            splitncnn_10             1 2 /gblocks/gblocks.3/norm/Sub_output_0 /gblocks/gblocks.3/norm/Sub_output_0_splitncnn_0 /gblocks/gblocks.3/norm/Sub_output_0_splitncnn_1
BinaryOp         /gblocks/gblocks.3/norm/Pow 1 1 /gblocks/gblocks.3/norm/Sub_output_0_splitncnn_1 /gblocks/gblocks.3/norm/Pow_output_0 0=6 1=1 2=2.000000e+00
Reduction        /gblocks/gblocks.3/norm/ReduceMean_1 1 1 /gblocks/gblocks.3/norm/Pow_output_0 /gblocks/gblocks.3/norm/ReduceMean_1_output_0 0=3 1=0 -23303=1,0 4=1 5=1
BinaryOp         /gblocks/gblocks.3/norm/Add 1 1 /gblocks/gblocks.3/norm/ReduceMean_1_output_0 /gblocks/gblocks.3/norm/Add_output_0 0=0 1=1 2=1.000000e-06
UnaryOp          /gblocks/gblocks.3/norm/Sqrt 1 1 /gblocks/gblocks.3/norm/Add_output_0 /gblocks/gblocks.3/norm/Sqrt_output_0 0=5
BinaryOp         /gblocks/gblocks.3/norm/Div 2 1 /gblocks/gblocks.3/norm/Sub_output_0_splitncnn_0 /gblocks/gblocks.3/norm/Sqrt_output_0 /gblocks/gblocks.3/norm/Div_output_0 0=3
ExpandDims       /gblocks/gblocks.3/norm/Unsqueeze 2 1 gblocks.3.norm.weight /gblocks/gblocks.3/norm/Constant_2_output_0 /gblocks/gblocks.3/norm/Unsqueeze_output_0 -23303=0
ExpandDims       /gblocks/gblocks.3/norm/Unsqueeze_1 2 1 /gblocks/gblocks.3/norm/Unsqueeze_output_0 /gblocks/gblocks.3/norm/Constant_3_output_0 /gblocks/gblocks.3/norm/Unsqueeze_1_output_0 -23303=0
BinaryOp         /gblocks/gblocks.3/norm/Mul 2 1 /gblocks/gblocks.3/norm/Unsqueeze_1_output_0 /gblocks/gblocks.3/norm/Div_output_0 /gblocks/gblocks.3/norm/Mul_output_0 0=2
ExpandDims       /gblocks/gblocks.3/norm/Unsqueeze_2 2 1 gblocks.3.norm.bias /gblocks/gblocks.3/norm/Constant_4_output_0 /gblocks/gblocks.3/norm/Unsqueeze_2_output_0 -23303=0
ExpandDims       /gblocks/gblocks.3/norm/Unsqueeze_3 2 1 /gblocks/gblocks.3/norm/Unsqueeze_2_output_0 /gblocks/gblocks.3/norm/Constant_5_output_0 /gblocks/gblocks.3/norm/Unsqueeze_3_output_0 -23303=0
BinaryOp         /gblocks/gblocks.3/norm/Add_1 2 1 /gblocks/gblocks.3/norm/Mul_output_0 /gblocks/gblocks.3/norm/Unsqueeze_3_output_0 /gblocks/gblocks.3/norm/Add_1_output_0 0=0
Convolution      /gblocks/gblocks.3/fc1/Conv 1 1 /gblocks/gblocks.3/norm/Add_1_output_0 /gblocks/gblocks.3/fc1/Conv_output_0 0=192 1=3 11=3 2=1 12=1 3=1 13=1 4=1 14=1 15=1 16=1 5=1 6=110592
Slice            /gblocks/gblocks.3/Split 2 3 /gblocks/gblocks.3/fc1/Conv_output_0 onnx::Split_230_splitncnn_21 /gblocks/gblocks.3/Split_output_0 /gblocks/gblocks.3/Split_output_1 /gblocks/gblocks.3/Split_output_2 -23300=3,-233,-233,-233 1=0
Split            splitncnn_11             1 2 /gblocks/gblocks.3/Split_output_0 /gblocks/gblocks.3/Split_output_0_splitncnn_0 /gblocks/gblocks.3/Split_output_0_splitncnn_1
ConvolutionDepthWise /gblocks/gblocks.3/conv/Conv 1 1 /gblocks/gblocks.3/Split_output_2 /gblocks/gblocks.3/conv/Conv_output_0 0=64 1=7 11=7 2=1 12=1 3=1 13=1 4=3 14=3 15=3 16=3 5=1 6=3136 7=64
Softplus         /gblocks/gblocks.3/act/Softplus 1 1 /gblocks/gblocks.3/Split_output_0_splitncnn_1 /gblocks/gblocks.3/act/Softplus_output_0
UnaryOp          /gblocks/gblocks.3/act/Tanh 1 1 /gblocks/gblocks.3/act/Softplus_output_0 /gblocks/gblocks.3/act/Tanh_output_0 0=16
BinaryOp         /gblocks/gblocks.3/act/Mul 2 1 /gblocks/gblocks.3/Split_output_0_splitncnn_0 /gblocks/gblocks.3/act/Tanh_output_0 /gblocks/gblocks.3/act/Mul_output_0 0=2
Concat           /gblocks/gblocks.3/Concat 2 1 /gblocks/gblocks.3/Split_output_1 /gblocks/gblocks.3/conv/Conv_output_0 /gblocks/gblocks.3/Concat_output_0 0=0
BinaryOp         /gblocks/gblocks.3/Mul   2 1 /gblocks/gblocks.3/act/Mul_output_0 /gblocks/gblocks.3/Concat_output_0 /gblocks/gblocks.3/Mul_output_0 0=2
Convolution      /gblocks/gblocks.3/fc2/Conv 1 1 /gblocks/gblocks.3/Mul_output_0 /gblocks/gblocks.3/fc2/Conv_output_0 0=64 1=3 11=3 2=1 12=1 3=1 13=1 4=1 14=1 15=1 16=1 5=1 6=55296
Split            splitncnn_12             1 2 /gblocks/gblocks.3/fc2/Conv_output_0 /gblocks/gblocks.3/fc2/Conv_output_0_splitncnn_0 /gblocks/gblocks.3/fc2/Conv_output_0_splitncnn_1
Softplus         /gblocks/gblocks.3/act_1/Softplus 1 1 /gblocks/gblocks.3/fc2/Conv_output_0_splitncnn_1 /gblocks/gblocks.3/act_1/Softplus_output_0
UnaryOp          /gblocks/gblocks.3/act_1/Tanh 1 1 /gblocks/gblocks.3/act_1/Softplus_output_0 /gblocks/gblocks.3/act_1/Tanh_output_0 0=16
BinaryOp         /gblocks/gblocks.3/act_1/Mul 2 1 /gblocks/gblocks.3/fc2/Conv_output_0_splitncnn_0 /gblocks/gblocks.3/act_1/Tanh_output_0 /gblocks/gblocks.3/act_1/Mul_output_0 0=2
BinaryOp         /gblocks/gblocks.3/Sub   1 1 /gblocks/gblocks.2/Add_output_0_splitncnn_0 /gblocks/gblocks.3/Sub_output_0 0=1 1=1 2=5.000000e-01
BinaryOp         /gblocks/gblocks.3/Add   2 1 /gblocks/gblocks.3/act_1/Mul_output_0 /gblocks/gblocks.3/Sub_output_0 /gblocks/gblocks.3/Add_output_0 0=0
Split            splitncnn_13             1 3 /gblocks/gblocks.3/Add_output_0 /gblocks/gblocks.3/Add_output_0_splitncnn_0 /gblocks/gblocks.3/Add_output_0_splitncnn_1 /gblocks/gblocks.3/Add_output_0_splitncnn_2
Reduction        /gblocks/gblocks.4/norm/ReduceMean 1 1 /gblocks/gblocks.3/Add_output_0_splitncnn_2 /gblocks/gblocks.4/norm/ReduceMean_output_0 0=3 1=0 -23303=1,0 4=1 5=1
BinaryOp         /gblocks/gblocks.4/norm/Sub 2 1 /gblocks/gblocks.3/Add_output_0_splitncnn_1 /gblocks/gblocks.4/norm/ReduceMean_output_0 /gblocks/gblocks.4/norm/Sub_output_0 0=1
Split            splitncnn_14             1 2 /gblocks/gblocks.4/norm/Sub_output_0 /gblocks/gblocks.4/norm/Sub_output_0_splitncnn_0 /gblocks/gblocks.4/norm/Sub_output_0_splitncnn_1
BinaryOp         /gblocks/gblocks.4/norm/Pow 1 1 /gblocks/gblocks.4/norm/Sub_output_0_splitncnn_1 /gblocks/gblocks.4/norm/Pow_output_0 0=6 1=1 2=2.000000e+00
Reduction        /gblocks/gblocks.4/norm/ReduceMean_1 1 1 /gblocks/gblocks.4/norm/Pow_output_0 /gblocks/gblocks.4/norm/ReduceMean_1_output_0 0=3 1=0 -23303=1,0 4=1 5=1
BinaryOp         /gblocks/gblocks.4/norm/Add 1 1 /gblocks/gblocks.4/norm/ReduceMean_1_output_0 /gblocks/gblocks.4/norm/Add_output_0 0=0 1=1 2=1.000000e-06
UnaryOp          /gblocks/gblocks.4/norm/Sqrt 1 1 /gblocks/gblocks.4/norm/Add_output_0 /gblocks/gblocks.4/norm/Sqrt_output_0 0=5
BinaryOp         /gblocks/gblocks.4/norm/Div 2 1 /gblocks/gblocks.4/norm/Sub_output_0_splitncnn_0 /gblocks/gblocks.4/norm/Sqrt_output_0 /gblocks/gblocks.4/norm/Div_output_0 0=3
ExpandDims       /gblocks/gblocks.4/norm/Unsqueeze 2 1 gblocks.4.norm.weight /gblocks/gblocks.4/norm/Constant_2_output_0 /gblocks/gblocks.4/norm/Unsqueeze_output_0 -23303=0
ExpandDims       /gblocks/gblocks.4/norm/Unsqueeze_1 2 1 /gblocks/gblocks.4/norm/Unsqueeze_output_0 /gblocks/gblocks.4/norm/Constant_3_output_0 /gblocks/gblocks.4/norm/Unsqueeze_1_output_0 -23303=0
BinaryOp         /gblocks/gblocks.4/norm/Mul 2 1 /gblocks/gblocks.4/norm/Unsqueeze_1_output_0 /gblocks/gblocks.4/norm/Div_output_0 /gblocks/gblocks.4/norm/Mul_output_0 0=2
ExpandDims       /gblocks/gblocks.4/norm/Unsqueeze_2 2 1 gblocks.4.norm.bias /gblocks/gblocks.4/norm/Constant_4_output_0 /gblocks/gblocks.4/norm/Unsqueeze_2_output_0 -23303=0
ExpandDims       /gblocks/gblocks.4/norm/Unsqueeze_3 2 1 /gblocks/gblocks.4/norm/Unsqueeze_2_output_0 /gblocks/gblocks.4/norm/Constant_5_output_0 /gblocks/gblocks.4/norm/Unsqueeze_3_output_0 -23303=0
BinaryOp         /gblocks/gblocks.4/norm/Add_1 2 1 /gblocks/gblocks.4/norm/Mul_output_0 /gblocks/gblocks.4/norm/Unsqueeze_3_output_0 /gblocks/gblocks.4/norm/Add_1_output_0 0=0
Convolution      /gblocks/gblocks.4/fc1/Conv 1 1 /gblocks/gblocks.4/norm/Add_1_output_0 /gblocks/gblocks.4/fc1/Conv_output_0 0=192 1=3 11=3 2=1 12=1 3=1 13=1 4=1 14=1 15=1 16=1 5=1 6=110592
Slice            /gblocks/gblocks.4/Split 2 3 /gblocks/gblocks.4/fc1/Conv_output_0 onnx::Split_230_splitncnn_20 /gblocks/gblocks.4/Split_output_0 /gblocks/gblocks.4/Split_output_1 /gblocks/gblocks.4/Split_output_2 -23300=3,-233,-233,-233 1=0
Split            splitncnn_15             1 2 /gblocks/gblocks.4/Split_output_0 /gblocks/gblocks.4/Split_output_0_splitncnn_0 /gblocks/gblocks.4/Split_output_0_splitncnn_1
ConvolutionDepthWise /gblocks/gblocks.4/conv/Conv 1 1 /gblocks/gblocks.4/Split_output_2 /gblocks/gblocks.4/conv/Conv_output_0 0=64 1=7 11=7 2=1 12=1 3=1 13=1 4=3 14=3 15=3 16=3 5=1 6=3136 7=64
Softplus         /gblocks/gblocks.4/act/Softplus 1 1 /gblocks/gblocks.4/Split_output_0_splitncnn_1 /gblocks/gblocks.4/act/Softplus_output_0
UnaryOp          /gblocks/gblocks.4/act/Tanh 1 1 /gblocks/gblocks.4/act/Softplus_output_0 /gblocks/gblocks.4/act/Tanh_output_0 0=16
BinaryOp         /gblocks/gblocks.4/act/Mul 2 1 /gblocks/gblocks.4/Split_output_0_splitncnn_0 /gblocks/gblocks.4/act/Tanh_output_0 /gblocks/gblocks.4/act/Mul_output_0 0=2
Concat           /gblocks/gblocks.4/Concat 2 1 /gblocks/gblocks.4/Split_output_1 /gblocks/gblocks.4/conv/Conv_output_0 /gblocks/gblocks.4/Concat_output_0 0=0
BinaryOp         /gblocks/gblocks.4/Mul   2 1 /gblocks/gblocks.4/act/Mul_output_0 /gblocks/gblocks.4/Concat_output_0 /gblocks/gblocks.4/Mul_output_0 0=2
Convolution      /gblocks/gblocks.4/fc2/Conv 1 1 /gblocks/gblocks.4/Mul_output_0 /gblocks/gblocks.4/fc2/Conv_output_0 0=64 1=3 11=3 2=1 12=1 3=1 13=1 4=1 14=1 15=1 16=1 5=1 6=55296
Split            splitncnn_16             1 2 /gblocks/gblocks.4/fc2/Conv_output_0 /gblocks/gblocks.4/fc2/Conv_output_0_splitncnn_0 /gblocks/gblocks.4/fc2/Conv_output_0_splitncnn_1
Softplus         /gblocks/gblocks.4/act_1/Softplus 1 1 /gblocks/gblocks.4/fc2/Conv_output_0_splitncnn_1 /gblocks/gblocks.4/act_1/Softplus_output_0
UnaryOp          /gblocks/gblocks.4/act_1/Tanh 1 1 /gblocks/gblocks.4/act_1/Softplus_output_0 /gblocks/gblocks.4/act_1/Tanh_output_0 0=16
BinaryOp         /gblocks/gblocks.4/act_1/Mul 2 1 /gblocks/gblocks.4/fc2/Conv_output_0_splitncnn_0 /gblocks/gblocks.4/act_1/Tanh_output_0 /gblocks/gblocks.4/act_1/Mul_output_0 0=2
BinaryOp         /gblocks/gblocks.4/Sub   1 1 /gblocks/gblocks.3/Add_output_0_splitncnn_0 /gblocks/gblocks.4/Sub_output_0 0=1 1=1 2=5.000000e-01
BinaryOp         /gblocks/gblocks.4/Add   2 1 /gblocks/gblocks.4/act_1/Mul_output_0 /gblocks/gblocks.4/Sub_output_0 /gblocks/gblocks.4/Add_output_0 0=0
Split            splitncnn_17             1 3 /gblocks/gblocks.4/Add_output_0 /gblocks/gblocks.4/Add_output_0_splitncnn_0 /gblocks/gblocks.4/Add_output_0_splitncnn_1 /gblocks/gblocks.4/Add_output_0_splitncnn_2
Reduction        /gblocks/gblocks.5/norm/ReduceMean 1 1 /gblocks/gblocks.4/Add_output_0_splitncnn_2 /gblocks/gblocks.5/norm/ReduceMean_output_0 0=3 1=0 -23303=1,0 4=1 5=1
BinaryOp         /gblocks/gblocks.5/norm/Sub 2 1 /gblocks/gblocks.4/Add_output_0_splitncnn_1 /gblocks/gblocks.5/norm/ReduceMean_output_0 /gblocks/gblocks.5/norm/Sub_output_0 0=1
Split            splitncnn_18             1 2 /gblocks/gblocks.5/norm/Sub_output_0 /gblocks/gblocks.5/norm/Sub_output_0_splitncnn_0 /gblocks/gblocks.5/norm/Sub_output_0_splitncnn_1
BinaryOp         /gblocks/gblocks.5/norm/Pow 1 1 /gblocks/gblocks.5/norm/Sub_output_0_splitncnn_1 /gblocks/gblocks.5/norm/Pow_output_0 0=6 1=1 2=2.000000e+00
Reduction        /gblocks/gblocks.5/norm/ReduceMean_1 1 1 /gblocks/gblocks.5/norm/Pow_output_0 /gblocks/gblocks.5/norm/ReduceMean_1_output_0 0=3 1=0 -23303=1,0 4=1 5=1
BinaryOp         /gblocks/gblocks.5/norm/Add 1 1 /gblocks/gblocks.5/norm/ReduceMean_1_output_0 /gblocks/gblocks.5/norm/Add_output_0 0=0 1=1 2=1.000000e-06
UnaryOp          /gblocks/gblocks.5/norm/Sqrt 1 1 /gblocks/gblocks.5/norm/Add_output_0 /gblocks/gblocks.5/norm/Sqrt_output_0 0=5
BinaryOp         /gblocks/gblocks.5/norm/Div 2 1 /gblocks/gblocks.5/norm/Sub_output_0_splitncnn_0 /gblocks/gblocks.5/norm/Sqrt_output_0 /gblocks/gblocks.5/norm/Div_output_0 0=3
ExpandDims       /gblocks/gblocks.5/norm/Unsqueeze 2 1 gblocks.5.norm.weight /gblocks/gblocks.5/norm/Constant_2_output_0 /gblocks/gblocks.5/norm/Unsqueeze_output_0 -23303=0
ExpandDims       /gblocks/gblocks.5/norm/Unsqueeze_1 2 1 /gblocks/gblocks.5/norm/Unsqueeze_output_0 /gblocks/gblocks.5/norm/Constant_3_output_0 /gblocks/gblocks.5/norm/Unsqueeze_1_output_0 -23303=0
BinaryOp         /gblocks/gblocks.5/norm/Mul 2 1 /gblocks/gblocks.5/norm/Unsqueeze_1_output_0 /gblocks/gblocks.5/norm/Div_output_0 /gblocks/gblocks.5/norm/Mul_output_0 0=2
ExpandDims       /gblocks/gblocks.5/norm/Unsqueeze_2 2 1 gblocks.5.norm.bias /gblocks/gblocks.5/norm/Constant_4_output_0 /gblocks/gblocks.5/norm/Unsqueeze_2_output_0 -23303=0
ExpandDims       /gblocks/gblocks.5/norm/Unsqueeze_3 2 1 /gblocks/gblocks.5/norm/Unsqueeze_2_output_0 /gblocks/gblocks.5/norm/Constant_5_output_0 /gblocks/gblocks.5/norm/Unsqueeze_3_output_0 -23303=0
BinaryOp         /gblocks/gblocks.5/norm/Add_1 2 1 /gblocks/gblocks.5/norm/Mul_output_0 /gblocks/gblocks.5/norm/Unsqueeze_3_output_0 /gblocks/gblocks.5/norm/Add_1_output_0 0=0
Convolution      /gblocks/gblocks.5/fc1/Conv 1 1 /gblocks/gblocks.5/norm/Add_1_output_0 /gblocks/gblocks.5/fc1/Conv_output_0 0=192 1=3 11=3 2=1 12=1 3=1 13=1 4=1 14=1 15=1 16=1 5=1 6=110592
Slice            /gblocks/gblocks.5/Split 2 3 /gblocks/gblocks.5/fc1/Conv_output_0 onnx::Split_230_splitncnn_19 /gblocks/gblocks.5/Split_output_0 /gblocks/gblocks.5/Split_output_1 /gblocks/gblocks.5/Split_output_2 -23300=3,-233,-233,-233 1=0
Split            splitncnn_19             1 2 /gblocks/gblocks.5/Split_output_0 /gblocks/gblocks.5/Split_output_0_splitncnn_0 /gblocks/gblocks.5/Split_output_0_splitncnn_1
ConvolutionDepthWise /gblocks/gblocks.5/conv/Conv 1 1 /gblocks/gblocks.5/Split_output_2 /gblocks/gblocks.5/conv/Conv_output_0 0=64 1=7 11=7 2=1 12=1 3=1 13=1 4=3 14=3 15=3 16=3 5=1 6=3136 7=64
Softplus         /gblocks/gblocks.5/act/Softplus 1 1 /gblocks/gblocks.5/Split_output_0_splitncnn_1 /gblocks/gblocks.5/act/Softplus_output_0
UnaryOp          /gblocks/gblocks.5/act/Tanh 1 1 /gblocks/gblocks.5/act/Softplus_output_0 /gblocks/gblocks.5/act/Tanh_output_0 0=16
BinaryOp         /gblocks/gblocks.5/act/Mul 2 1 /gblocks/gblocks.5/Split_output_0_splitncnn_0 /gblocks/gblocks.5/act/Tanh_output_0 /gblocks/gblocks.5/act/Mul_output_0 0=2
Concat           /gblocks/gblocks.5/Concat 2 1 /gblocks/gblocks.5/Split_output_1 /gblocks/gblocks.5/conv/Conv_output_0 /gblocks/gblocks.5/Concat_output_0 0=0
BinaryOp         /gblocks/gblocks.5/Mul   2 1 /gblocks/gblocks.5/act/Mul_output_0 /gblocks/gblocks.5/Concat_output_0 /gblocks/gblocks.5/Mul_output_0 0=2
Convolution      /gblocks/gblocks.5/fc2/Conv 1 1 /gblocks/gblocks.5/Mul_output_0 /gblocks/gblocks.5/fc2/Conv_output_0 0=64 1=3 11=3 2=1 12=1 3=1 13=1 4=1 14=1 15=1 16=1 5=1 6=55296
Split            splitncnn_20             1 2 /gblocks/gblocks.5/fc2/Conv_output_0 /gblocks/gblocks.5/fc2/Conv_output_0_splitncnn_0 /gblocks/gblocks.5/fc2/Conv_output_0_splitncnn_1
Softplus         /gblocks/gblocks.5/act_1/Softplus 1 1 /gblocks/gblocks.5/fc2/Conv_output_0_splitncnn_1 /gblocks/gblocks.5/act_1/Softplus_output_0
UnaryOp          /gblocks/gblocks.5/act_1/Tanh 1 1 /gblocks/gblocks.5/act_1/Softplus_output_0 /gblocks/gblocks.5/act_1/Tanh_output_0 0=16
BinaryOp         /gblocks/gblocks.5/act_1/Mul 2 1 /gblocks/gblocks.5/fc2/Conv_output_0_splitncnn_0 /gblocks/gblocks.5/act_1/Tanh_output_0 /gblocks/gblocks.5/act_1/Mul_output_0 0=2
BinaryOp         /gblocks/gblocks.5/Sub   1 1 /gblocks/gblocks.4/Add_output_0_splitncnn_0 /gblocks/gblocks.5/Sub_output_0 0=1 1=1 2=5.000000e-01
BinaryOp         /gblocks/gblocks.5/Add   2 1 /gblocks/gblocks.5/act_1/Mul_output_0 /gblocks/gblocks.5/Sub_output_0 /gblocks/gblocks.5/Add_output_0 0=0
Split            splitncnn_21             1 3 /gblocks/gblocks.5/Add_output_0 /gblocks/gblocks.5/Add_output_0_splitncnn_0 /gblocks/gblocks.5/Add_output_0_splitncnn_1 /gblocks/gblocks.5/Add_output_0_splitncnn_2
Reduction        /gblocks/gblocks.6/norm/ReduceMean 1 1 /gblocks/gblocks.5/Add_output_0_splitncnn_2 /gblocks/gblocks.6/norm/ReduceMean_output_0 0=3 1=0 -23303=1,0 4=1 5=1
BinaryOp         /gblocks/gblocks.6/norm/Sub 2 1 /gblocks/gblocks.5/Add_output_0_splitncnn_1 /gblocks/gblocks.6/norm/ReduceMean_output_0 /gblocks/gblocks.6/norm/Sub_output_0 0=1
Split            splitncnn_22             1 2 /gblocks/gblocks.6/norm/Sub_output_0 /gblocks/gblocks.6/norm/Sub_output_0_splitncnn_0 /gblocks/gblocks.6/norm/Sub_output_0_splitncnn_1
BinaryOp         /gblocks/gblocks.6/norm/Pow 1 1 /gblocks/gblocks.6/norm/Sub_output_0_splitncnn_1 /gblocks/gblocks.6/norm/Pow_output_0 0=6 1=1 2=2.000000e+00
Reduction        /gblocks/gblocks.6/norm/ReduceMean_1 1 1 /gblocks/gblocks.6/norm/Pow_output_0 /gblocks/gblocks.6/norm/ReduceMean_1_output_0 0=3 1=0 -23303=1,0 4=1 5=1
BinaryOp         /gblocks/gblocks.6/norm/Add 1 1 /gblocks/gblocks.6/norm/ReduceMean_1_output_0 /gblocks/gblocks.6/norm/Add_output_0 0=0 1=1 2=1.000000e-06
UnaryOp          /gblocks/gblocks.6/norm/Sqrt 1 1 /gblocks/gblocks.6/norm/Add_output_0 /gblocks/gblocks.6/norm/Sqrt_output_0 0=5
BinaryOp         /gblocks/gblocks.6/norm/Div 2 1 /gblocks/gblocks.6/norm/Sub_output_0_splitncnn_0 /gblocks/gblocks.6/norm/Sqrt_output_0 /gblocks/gblocks.6/norm/Div_output_0 0=3
ExpandDims       /gblocks/gblocks.6/norm/Unsqueeze 2 1 gblocks.6.norm.weight /gblocks/gblocks.6/norm/Constant_2_output_0 /gblocks/gblocks.6/norm/Unsqueeze_output_0 -23303=0
ExpandDims       /gblocks/gblocks.6/norm/Unsqueeze_1 2 1 /gblocks/gblocks.6/norm/Unsqueeze_output_0 /gblocks/gblocks.6/norm/Constant_3_output_0 /gblocks/gblocks.6/norm/Unsqueeze_1_output_0 -23303=0
BinaryOp         /gblocks/gblocks.6/norm/Mul 2 1 /gblocks/gblocks.6/norm/Unsqueeze_1_output_0 /gblocks/gblocks.6/norm/Div_output_0 /gblocks/gblocks.6/norm/Mul_output_0 0=2
ExpandDims       /gblocks/gblocks.6/norm/Unsqueeze_2 2 1 gblocks.6.norm.bias /gblocks/gblocks.6/norm/Constant_4_output_0 /gblocks/gblocks.6/norm/Unsqueeze_2_output_0 -23303=0
ExpandDims       /gblocks/gblocks.6/norm/Unsqueeze_3 2 1 /gblocks/gblocks.6/norm/Unsqueeze_2_output_0 /gblocks/gblocks.6/norm/Constant_5_output_0 /gblocks/gblocks.6/norm/Unsqueeze_3_output_0 -23303=0
BinaryOp         /gblocks/gblocks.6/norm/Add_1 2 1 /gblocks/gblocks.6/norm/Mul_output_0 /gblocks/gblocks.6/norm/Unsqueeze_3_output_0 /gblocks/gblocks.6/norm/Add_1_output_0 0=0
Convolution      /gblocks/gblocks.6/fc1/Conv 1 1 /gblocks/gblocks.6/norm/Add_1_output_0 /gblocks/gblocks.6/fc1/Conv_output_0 0=192 1=3 11=3 2=1 12=1 3=1 13=1 4=1 14=1 15=1 16=1 5=1 6=110592
Slice            /gblocks/gblocks.6/Split 2 3 /gblocks/gblocks.6/fc1/Conv_output_0 onnx::Split_230_splitncnn_18 /gblocks/gblocks.6/Split_output_0 /gblocks/gblocks.6/Split_output_1 /gblocks/gblocks.6/Split_output_2 -23300=3,-233,-233,-233 1=0
Split            splitncnn_23             1 2 /gblocks/gblocks.6/Split_output_0 /gblocks/gblocks.6/Split_output_0_splitncnn_0 /gblocks/gblocks.6/Split_output_0_splitncnn_1
ConvolutionDepthWise /gblocks/gblocks.6/conv/Conv 1 1 /gblocks/gblocks.6/Split_output_2 /gblocks/gblocks.6/conv/Conv_output_0 0=64 1=7 11=7 2=1 12=1 3=1 13=1 4=3 14=3 15=3 16=3 5=1 6=3136 7=64
Softplus         /gblocks/gblocks.6/act/Softplus 1 1 /gblocks/gblocks.6/Split_output_0_splitncnn_1 /gblocks/gblocks.6/act/Softplus_output_0
UnaryOp          /gblocks/gblocks.6/act/Tanh 1 1 /gblocks/gblocks.6/act/Softplus_output_0 /gblocks/gblocks.6/act/Tanh_output_0 0=16
BinaryOp         /gblocks/gblocks.6/act/Mul 2 1 /gblocks/gblocks.6/Split_output_0_splitncnn_0 /gblocks/gblocks.6/act/Tanh_output_0 /gblocks/gblocks.6/act/Mul_output_0 0=2
Concat           /gblocks/gblocks.6/Concat 2 1 /gblocks/gblocks.6/Split_output_1 /gblocks/gblocks.6/conv/Conv_output_0 /gblocks/gblocks.6/Concat_output_0 0=0
BinaryOp         /gblocks/gblocks.6/Mul   2 1 /gblocks/gblocks.6/act/Mul_output_0 /gblocks/gblocks.6/Concat_output_0 /gblocks/gblocks.6/Mul_output_0 0=2
Convolution      /gblocks/gblocks.6/fc2/Conv 1 1 /gblocks/gblocks.6/Mul_output_0 /gblocks/gblocks.6/fc2/Conv_output_0 0=64 1=3 11=3 2=1 12=1 3=1 13=1 4=1 14=1 15=1 16=1 5=1 6=55296
Split            splitncnn_24             1 2 /gblocks/gblocks.6/fc2/Conv_output_0 /gblocks/gblocks.6/fc2/Conv_output_0_splitncnn_0 /gblocks/gblocks.6/fc2/Conv_output_0_splitncnn_1
Softplus         /gblocks/gblocks.6/act_1/Softplus 1 1 /gblocks/gblocks.6/fc2/Conv_output_0_splitncnn_1 /gblocks/gblocks.6/act_1/Softplus_output_0
UnaryOp          /gblocks/gblocks.6/act_1/Tanh 1 1 /gblocks/gblocks.6/act_1/Softplus_output_0 /gblocks/gblocks.6/act_1/Tanh_output_0 0=16
BinaryOp         /gblocks/gblocks.6/act_1/Mul 2 1 /gblocks/gblocks.6/fc2/Conv_output_0_splitncnn_0 /gblocks/gblocks.6/act_1/Tanh_output_0 /gblocks/gblocks.6/act_1/Mul_output_0 0=2
BinaryOp         /gblocks/gblocks.6/Sub   1 1 /gblocks/gblocks.5/Add_output_0_splitncnn_0 /gblocks/gblocks.6/Sub_output_0 0=1 1=1 2=5.000000e-01
BinaryOp         /gblocks/gblocks.6/Add   2 1 /gblocks/gblocks.6/act_1/Mul_output_0 /gblocks/gblocks.6/Sub_output_0 /gblocks/gblocks.6/Add_output_0 0=0
Split            splitncnn_25             1 3 /gblocks/gblocks.6/Add_output_0 /gblocks/gblocks.6/Add_output_0_splitncnn_0 /gblocks/gblocks.6/Add_output_0_splitncnn_1 /gblocks/gblocks.6/Add_output_0_splitncnn_2
Reduction        /gblocks/gblocks.7/norm/ReduceMean 1 1 /gblocks/gblocks.6/Add_output_0_splitncnn_2 /gblocks/gblocks.7/norm/ReduceMean_output_0 0=3 1=0 -23303=1,0 4=1 5=1
BinaryOp         /gblocks/gblocks.7/norm/Sub 2 1 /gblocks/gblocks.6/Add_output_0_splitncnn_1 /gblocks/gblocks.7/norm/ReduceMean_output_0 /gblocks/gblocks.7/norm/Sub_output_0 0=1
Split            splitncnn_26             1 2 /gblocks/gblocks.7/norm/Sub_output_0 /gblocks/gblocks.7/norm/Sub_output_0_splitncnn_0 /gblocks/gblocks.7/norm/Sub_output_0_splitncnn_1
BinaryOp         /gblocks/gblocks.7/norm/Pow 1 1 /gblocks/gblocks.7/norm/Sub_output_0_splitncnn_1 /gblocks/gblocks.7/norm/Pow_output_0 0=6 1=1 2=2.000000e+00
Reduction        /gblocks/gblocks.7/norm/ReduceMean_1 1 1 /gblocks/gblocks.7/norm/Pow_output_0 /gblocks/gblocks.7/norm/ReduceMean_1_output_0 0=3 1=0 -23303=1,0 4=1 5=1
BinaryOp         /gblocks/gblocks.7/norm/Add 1 1 /gblocks/gblocks.7/norm/ReduceMean_1_output_0 /gblocks/gblocks.7/norm/Add_output_0 0=0 1=1 2=1.000000e-06
UnaryOp          /gblocks/gblocks.7/norm/Sqrt 1 1 /gblocks/gblocks.7/norm/Add_output_0 /gblocks/gblocks.7/norm/Sqrt_output_0 0=5
BinaryOp         /gblocks/gblocks.7/norm/Div 2 1 /gblocks/gblocks.7/norm/Sub_output_0_splitncnn_0 /gblocks/gblocks.7/norm/Sqrt_output_0 /gblocks/gblocks.7/norm/Div_output_0 0=3
ExpandDims       /gblocks/gblocks.7/norm/Unsqueeze 2 1 gblocks.7.norm.weight /gblocks/gblocks.7/norm/Constant_2_output_0 /gblocks/gblocks.7/norm/Unsqueeze_output_0 -23303=0
ExpandDims       /gblocks/gblocks.7/norm/Unsqueeze_1 2 1 /gblocks/gblocks.7/norm/Unsqueeze_output_0 /gblocks/gblocks.7/norm/Constant_3_output_0 /gblocks/gblocks.7/norm/Unsqueeze_1_output_0 -23303=0
BinaryOp         /gblocks/gblocks.7/norm/Mul 2 1 /gblocks/gblocks.7/norm/Unsqueeze_1_output_0 /gblocks/gblocks.7/norm/Div_output_0 /gblocks/gblocks.7/norm/Mul_output_0 0=2
ExpandDims       /gblocks/gblocks.7/norm/Unsqueeze_2 2 1 gblocks.7.norm.bias /gblocks/gblocks.7/norm/Constant_4_output_0 /gblocks/gblocks.7/norm/Unsqueeze_2_output_0 -23303=0
ExpandDims       /gblocks/gblocks.7/norm/Unsqueeze_3 2 1 /gblocks/gblocks.7/norm/Unsqueeze_2_output_0 /gblocks/gblocks.7/norm/Constant_5_output_0 /gblocks/gblocks.7/norm/Unsqueeze_3_output_0 -23303=0
BinaryOp         /gblocks/gblocks.7/norm/Add_1 2 1 /gblocks/gblocks.7/norm/Mul_output_0 /gblocks/gblocks.7/norm/Unsqueeze_3_output_0 /gblocks/gblocks.7/norm/Add_1_output_0 0=0
Convolution      /gblocks/gblocks.7/fc1/Conv 1 1 /gblocks/gblocks.7/norm/Add_1_output_0 /gblocks/gblocks.7/fc1/Conv_output_0 0=192 1=3 11=3 2=1 12=1 3=1 13=1 4=1 14=1 15=1 16=1 5=1 6=110592
Slice            /gblocks/gblocks.7/Split 2 3 /gblocks/gblocks.7/fc1/Conv_output_0 onnx::Split_230_splitncnn_17 /gblocks/gblocks.7/Split_output_0 /gblocks/gblocks.7/Split_output_1 /gblocks/gblocks.7/Split_output_2 -23300=3,-233,-233,-233 1=0
Split            splitncnn_27             1 2 /gblocks/gblocks.7/Split_output_0 /gblocks/gblocks.7/Split_output_0_splitncnn_0 /gblocks/gblocks.7/Split_output_0_splitncnn_1
ConvolutionDepthWise /gblocks/gblocks.7/conv/Conv 1 1 /gblocks/gblocks.7/Split_output_2 /gblocks/gblocks.7/conv/Conv_output_0 0=64 1=7 11=7 2=1 12=1 3=1 13=1 4=3 14=3 15=3 16=3 5=1 6=3136 7=64
Softplus         /gblocks/gblocks.7/act/Softplus 1 1 /gblocks/gblocks.7/Split_output_0_splitncnn_1 /gblocks/gblocks.7/act/Softplus_output_0
UnaryOp          /gblocks/gblocks.7/act/Tanh 1 1 /gblocks/gblocks.7/act/Softplus_output_0 /gblocks/gblocks.7/act/Tanh_output_0 0=16
BinaryOp         /gblocks/gblocks.7/act/Mul 2 1 /gblocks/gblocks.7/Split_output_0_splitncnn_0 /gblocks/gblocks.7/act/Tanh_output_0 /gblocks/gblocks.7/act/Mul_output_0 0=2
Concat           /gblocks/gblocks.7/Concat 2 1 /gblocks/gblocks.7/Split_output_1 /gblocks/gblocks.7/conv/Conv_output_0 /gblocks/gblocks.7/Concat_output_0 0=0
BinaryOp         /gblocks/gblocks.7/Mul   2 1 /gblocks/gblocks.7/act/Mul_output_0 /gblocks/gblocks.7/Concat_output_0 /gblocks/gblocks.7/Mul_output_0 0=2
Convolution      /gblocks/gblocks.7/fc2/Conv 1 1 /gblocks/gblocks.7/Mul_output_0 /gblocks/gblocks.7/fc2/Conv_output_0 0=64 1=3 11=3 2=1 12=1 3=1 13=1 4=1 14=1 15=1 16=1 5=1 6=55296
Split            splitncnn_28             1 2 /gblocks/gblocks.7/fc2/Conv_output_0 /gblocks/gblocks.7/fc2/Conv_output_0_splitncnn_0 /gblocks/gblocks.7/fc2/Conv_output_0_splitncnn_1
Softplus         /gblocks/gblocks.7/act_1/Softplus 1 1 /gblocks/gblocks.7/fc2/Conv_output_0_splitncnn_1 /gblocks/gblocks.7/act_1/Softplus_output_0
UnaryOp          /gblocks/gblocks.7/act_1/Tanh 1 1 /gblocks/gblocks.7/act_1/Softplus_output_0 /gblocks/gblocks.7/act_1/Tanh_output_0 0=16
BinaryOp         /gblocks/gblocks.7/act_1/Mul 2 1 /gblocks/gblocks.7/fc2/Conv_output_0_splitncnn_0 /gblocks/gblocks.7/act_1/Tanh_output_0 /gblocks/gblocks.7/act_1/Mul_output_0 0=2
BinaryOp         /gblocks/gblocks.7/Sub   1 1 /gblocks/gblocks.6/Add_output_0_splitncnn_0 /gblocks/gblocks.7/Sub_output_0 0=1 1=1 2=5.000000e-01
BinaryOp         /gblocks/gblocks.7/Add   2 1 /gblocks/gblocks.7/act_1/Mul_output_0 /gblocks/gblocks.7/Sub_output_0 /gblocks/gblocks.7/Add_output_0 0=0
Split            splitncnn_29             1 3 /gblocks/gblocks.7/Add_output_0 /gblocks/gblocks.7/Add_output_0_splitncnn_0 /gblocks/gblocks.7/Add_output_0_splitncnn_1 /gblocks/gblocks.7/Add_output_0_splitncnn_2
Reduction        /gblocks/gblocks.8/norm/ReduceMean 1 1 /gblocks/gblocks.7/Add_output_0_splitncnn_2 /gblocks/gblocks.8/norm/ReduceMean_output_0 0=3 1=0 -23303=1,0 4=1 5=1
BinaryOp         /gblocks/gblocks.8/norm/Sub 2 1 /gblocks/gblocks.7/Add_output_0_splitncnn_1 /gblocks/gblocks.8/norm/ReduceMean_output_0 /gblocks/gblocks.8/norm/Sub_output_0 0=1
Split            splitncnn_30             1 2 /gblocks/gblocks.8/norm/Sub_output_0 /gblocks/gblocks.8/norm/Sub_output_0_splitncnn_0 /gblocks/gblocks.8/norm/Sub_output_0_splitncnn_1
BinaryOp         /gblocks/gblocks.8/norm/Pow 1 1 /gblocks/gblocks.8/norm/Sub_output_0_splitncnn_1 /gblocks/gblocks.8/norm/Pow_output_0 0=6 1=1 2=2.000000e+00
Reduction        /gblocks/gblocks.8/norm/ReduceMean_1 1 1 /gblocks/gblocks.8/norm/Pow_output_0 /gblocks/gblocks.8/norm/ReduceMean_1_output_0 0=3 1=0 -23303=1,0 4=1 5=1
BinaryOp         /gblocks/gblocks.8/norm/Add 1 1 /gblocks/gblocks.8/norm/ReduceMean_1_output_0 /gblocks/gblocks.8/norm/Add_output_0 0=0 1=1 2=1.000000e-06
UnaryOp          /gblocks/gblocks.8/norm/Sqrt 1 1 /gblocks/gblocks.8/norm/Add_output_0 /gblocks/gblocks.8/norm/Sqrt_output_0 0=5
BinaryOp         /gblocks/gblocks.8/norm/Div 2 1 /gblocks/gblocks.8/norm/Sub_output_0_splitncnn_0 /gblocks/gblocks.8/norm/Sqrt_output_0 /gblocks/gblocks.8/norm/Div_output_0 0=3
ExpandDims       /gblocks/gblocks.8/norm/Unsqueeze 2 1 gblocks.8.norm.weight /gblocks/gblocks.8/norm/Constant_2_output_0 /gblocks/gblocks.8/norm/Unsqueeze_output_0 -23303=0
ExpandDims       /gblocks/gblocks.8/norm/Unsqueeze_1 2 1 /gblocks/gblocks.8/norm/Unsqueeze_output_0 /gblocks/gblocks.8/norm/Constant_3_output_0 /gblocks/gblocks.8/norm/Unsqueeze_1_output_0 -23303=0
BinaryOp         /gblocks/gblocks.8/norm/Mul 2 1 /gblocks/gblocks.8/norm/Unsqueeze_1_output_0 /gblocks/gblocks.8/norm/Div_output_0 /gblocks/gblocks.8/norm/Mul_output_0 0=2
ExpandDims       /gblocks/gblocks.8/norm/Unsqueeze_2 2 1 gblocks.8.norm.bias /gblocks/gblocks.8/norm/Constant_4_output_0 /gblocks/gblocks.8/norm/Unsqueeze_2_output_0 -23303=0
ExpandDims       /gblocks/gblocks.8/norm/Unsqueeze_3 2 1 /gblocks/gblocks.8/norm/Unsqueeze_2_output_0 /gblocks/gblocks.8/norm/Constant_5_output_0 /gblocks/gblocks.8/norm/Unsqueeze_3_output_0 -23303=0
BinaryOp         /gblocks/gblocks.8/norm/Add_1 2 1 /gblocks/gblocks.8/norm/Mul_output_0 /gblocks/gblocks.8/norm/Unsqueeze_3_output_0 /gblocks/gblocks.8/norm/Add_1_output_0 0=0
Convolution      /gblocks/gblocks.8/fc1/Conv 1 1 /gblocks/gblocks.8/norm/Add_1_output_0 /gblocks/gblocks.8/fc1/Conv_output_0 0=192 1=3 11=3 2=1 12=1 3=1 13=1 4=1 14=1 15=1 16=1 5=1 6=110592
Slice            /gblocks/gblocks.8/Split 2 3 /gblocks/gblocks.8/fc1/Conv_output_0 onnx::Split_230_splitncnn_16 /gblocks/gblocks.8/Split_output_0 /gblocks/gblocks.8/Split_output_1 /gblocks/gblocks.8/Split_output_2 -23300=3,-233,-233,-233 1=0
Split            splitncnn_31             1 2 /gblocks/gblocks.8/Split_output_0 /gblocks/gblocks.8/Split_output_0_splitncnn_0 /gblocks/gblocks.8/Split_output_0_splitncnn_1
ConvolutionDepthWise /gblocks/gblocks.8/conv/Conv 1 1 /gblocks/gblocks.8/Split_output_2 /gblocks/gblocks.8/conv/Conv_output_0 0=64 1=7 11=7 2=1 12=1 3=1 13=1 4=3 14=3 15=3 16=3 5=1 6=3136 7=64
Softplus         /gblocks/gblocks.8/act/Softplus 1 1 /gblocks/gblocks.8/Split_output_0_splitncnn_1 /gblocks/gblocks.8/act/Softplus_output_0
UnaryOp          /gblocks/gblocks.8/act/Tanh 1 1 /gblocks/gblocks.8/act/Softplus_output_0 /gblocks/gblocks.8/act/Tanh_output_0 0=16
BinaryOp         /gblocks/gblocks.8/act/Mul 2 1 /gblocks/gblocks.8/Split_output_0_splitncnn_0 /gblocks/gblocks.8/act/Tanh_output_0 /gblocks/gblocks.8/act/Mul_output_0 0=2
Concat           /gblocks/gblocks.8/Concat 2 1 /gblocks/gblocks.8/Split_output_1 /gblocks/gblocks.8/conv/Conv_output_0 /gblocks/gblocks.8/Concat_output_0 0=0
BinaryOp         /gblocks/gblocks.8/Mul   2 1 /gblocks/gblocks.8/act/Mul_output_0 /gblocks/gblocks.8/Concat_output_0 /gblocks/gblocks.8/Mul_output_0 0=2
Convolution      /gblocks/gblocks.8/fc2/Conv 1 1 /gblocks/gblocks.8/Mul_output_0 /gblocks/gblocks.8/fc2/Conv_output_0 0=64 1=3 11=3 2=1 12=1 3=1 13=1 4=1 14=1 15=1 16=1 5=1 6=55296
Split            splitncnn_32             1 2 /gblocks/gblocks.8/fc2/Conv_output_0 /gblocks/gblocks.8/fc2/Conv_output_0_splitncnn_0 /gblocks/gblocks.8/fc2/Conv_output_0_splitncnn_1
Softplus         /gblocks/gblocks.8/act_1/Softplus 1 1 /gblocks/gblocks.8/fc2/Conv_output_0_splitncnn_1 /gblocks/gblocks.8/act_1/Softplus_output_0
UnaryOp          /gblocks/gblocks.8/act_1/Tanh 1 1 /gblocks/gblocks.8/act_1/Softplus_output_0 /gblocks/gblocks.8/act_1/Tanh_output_0 0=16
BinaryOp         /gblocks/gblocks.8/act_1/Mul 2 1 /gblocks/gblocks.8/fc2/Conv_output_0_splitncnn_0 /gblocks/gblocks.8/act_1/Tanh_output_0 /gblocks/gblocks.8/act_1/Mul_output_0 0=2
BinaryOp         /gblocks/gblocks.8/Sub   1 1 /gblocks/gblocks.7/Add_output_0_splitncnn_0 /gblocks/gblocks.8/Sub_output_0 0=1 1=1 2=5.000000e-01
BinaryOp         /gblocks/gblocks.8/Add   2 1 /gblocks/gblocks.8/act_1/Mul_output_0 /gblocks/gblocks.8/Sub_output_0 /gblocks/gblocks.8/Add_output_0 0=0
Split            splitncnn_33             1 3 /gblocks/gblocks.8/Add_output_0 /gblocks/gblocks.8/Add_output_0_splitncnn_0 /gblocks/gblocks.8/Add_output_0_splitncnn_1 /gblocks/gblocks.8/Add_output_0_splitncnn_2
Reduction        /gblocks/gblocks.9/norm/ReduceMean 1 1 /gblocks/gblocks.8/Add_output_0_splitncnn_2 /gblocks/gblocks.9/norm/ReduceMean_output_0 0=3 1=0 -23303=1,0 4=1 5=1
BinaryOp         /gblocks/gblocks.9/norm/Sub 2 1 /gblocks/gblocks.8/Add_output_0_splitncnn_1 /gblocks/gblocks.9/norm/ReduceMean_output_0 /gblocks/gblocks.9/norm/Sub_output_0 0=1
Split            splitncnn_34             1 2 /gblocks/gblocks.9/norm/Sub_output_0 /gblocks/gblocks.9/norm/Sub_output_0_splitncnn_0 /gblocks/gblocks.9/norm/Sub_output_0_splitncnn_1
BinaryOp         /gblocks/gblocks.9/norm/Pow 1 1 /gblocks/gblocks.9/norm/Sub_output_0_splitncnn_1 /gblocks/gblocks.9/norm/Pow_output_0 0=6 1=1 2=2.000000e+00
Reduction        /gblocks/gblocks.9/norm/ReduceMean_1 1 1 /gblocks/gblocks.9/norm/Pow_output_0 /gblocks/gblocks.9/norm/ReduceMean_1_output_0 0=3 1=0 -23303=1,0 4=1 5=1
BinaryOp         /gblocks/gblocks.9/norm/Add 1 1 /gblocks/gblocks.9/norm/ReduceMean_1_output_0 /gblocks/gblocks.9/norm/Add_output_0 0=0 1=1 2=1.000000e-06
UnaryOp          /gblocks/gblocks.9/norm/Sqrt 1 1 /gblocks/gblocks.9/norm/Add_output_0 /gblocks/gblocks.9/norm/Sqrt_output_0 0=5
BinaryOp         /gblocks/gblocks.9/norm/Div 2 1 /gblocks/gblocks.9/norm/Sub_output_0_splitncnn_0 /gblocks/gblocks.9/norm/Sqrt_output_0 /gblocks/gblocks.9/norm/Div_output_0 0=3
ExpandDims       /gblocks/gblocks.9/norm/Unsqueeze 2 1 gblocks.9.norm.weight /gblocks/gblocks.9/norm/Constant_2_output_0 /gblocks/gblocks.9/norm/Unsqueeze_output_0 -23303=0
ExpandDims       /gblocks/gblocks.9/norm/Unsqueeze_1 2 1 /gblocks/gblocks.9/norm/Unsqueeze_output_0 /gblocks/gblocks.9/norm/Constant_3_output_0 /gblocks/gblocks.9/norm/Unsqueeze_1_output_0 -23303=0
BinaryOp         /gblocks/gblocks.9/norm/Mul 2 1 /gblocks/gblocks.9/norm/Unsqueeze_1_output_0 /gblocks/gblocks.9/norm/Div_output_0 /gblocks/gblocks.9/norm/Mul_output_0 0=2
ExpandDims       /gblocks/gblocks.9/norm/Unsqueeze_2 2 1 gblocks.9.norm.bias /gblocks/gblocks.9/norm/Constant_4_output_0 /gblocks/gblocks.9/norm/Unsqueeze_2_output_0 -23303=0
ExpandDims       /gblocks/gblocks.9/norm/Unsqueeze_3 2 1 /gblocks/gblocks.9/norm/Unsqueeze_2_output_0 /gblocks/gblocks.9/norm/Constant_5_output_0 /gblocks/gblocks.9/norm/Unsqueeze_3_output_0 -23303=0
BinaryOp         /gblocks/gblocks.9/norm/Add_1 2 1 /gblocks/gblocks.9/norm/Mul_output_0 /gblocks/gblocks.9/norm/Unsqueeze_3_output_0 /gblocks/gblocks.9/norm/Add_1_output_0 0=0
Convolution      /gblocks/gblocks.9/fc1/Conv 1 1 /gblocks/gblocks.9/norm/Add_1_output_0 /gblocks/gblocks.9/fc1/Conv_output_0 0=192 1=3 11=3 2=1 12=1 3=1 13=1 4=1 14=1 15=1 16=1 5=1 6=110592
Slice            /gblocks/gblocks.9/Split 2 3 /gblocks/gblocks.9/fc1/Conv_output_0 onnx::Split_230_splitncnn_15 /gblocks/gblocks.9/Split_output_0 /gblocks/gblocks.9/Split_output_1 /gblocks/gblocks.9/Split_output_2 -23300=3,-233,-233,-233 1=0
Split            splitncnn_35             1 2 /gblocks/gblocks.9/Split_output_0 /gblocks/gblocks.9/Split_output_0_splitncnn_0 /gblocks/gblocks.9/Split_output_0_splitncnn_1
ConvolutionDepthWise /gblocks/gblocks.9/conv/Conv 1 1 /gblocks/gblocks.9/Split_output_2 /gblocks/gblocks.9/conv/Conv_output_0 0=64 1=7 11=7 2=1 12=1 3=1 13=1 4=3 14=3 15=3 16=3 5=1 6=3136 7=64
Softplus         /gblocks/gblocks.9/act/Softplus 1 1 /gblocks/gblocks.9/Split_output_0_splitncnn_1 /gblocks/gblocks.9/act/Softplus_output_0
UnaryOp          /gblocks/gblocks.9/act/Tanh 1 1 /gblocks/gblocks.9/act/Softplus_output_0 /gblocks/gblocks.9/act/Tanh_output_0 0=16
BinaryOp         /gblocks/gblocks.9/act/Mul 2 1 /gblocks/gblocks.9/Split_output_0_splitncnn_0 /gblocks/gblocks.9/act/Tanh_output_0 /gblocks/gblocks.9/act/Mul_output_0 0=2
Concat           /gblocks/gblocks.9/Concat 2 1 /gblocks/gblocks.9/Split_output_1 /gblocks/gblocks.9/conv/Conv_output_0 /gblocks/gblocks.9/Concat_output_0 0=0
BinaryOp         /gblocks/gblocks.9/Mul   2 1 /gblocks/gblocks.9/act/Mul_output_0 /gblocks/gblocks.9/Concat_output_0 /gblocks/gblocks.9/Mul_output_0 0=2
Convolution      /gblocks/gblocks.9/fc2/Conv 1 1 /gblocks/gblocks.9/Mul_output_0 /gblocks/gblocks.9/fc2/Conv_output_0 0=64 1=3 11=3 2=1 12=1 3=1 13=1 4=1 14=1 15=1 16=1 5=1 6=55296
Split            splitncnn_36             1 2 /gblocks/gblocks.9/fc2/Conv_output_0 /gblocks/gblocks.9/fc2/Conv_output_0_splitncnn_0 /gblocks/gblocks.9/fc2/Conv_output_0_splitncnn_1
Softplus         /gblocks/gblocks.9/act_1/Softplus 1 1 /gblocks/gblocks.9/fc2/Conv_output_0_splitncnn_1 /gblocks/gblocks.9/act_1/Softplus_output_0
UnaryOp          /gblocks/gblocks.9/act_1/Tanh 1 1 /gblocks/gblocks.9/act_1/Softplus_output_0 /gblocks/gblocks.9/act_1/Tanh_output_0 0=16
BinaryOp         /gblocks/gblocks.9/act_1/Mul 2 1 /gblocks/gblocks.9/fc2/Conv_output_0_splitncnn_0 /gblocks/gblocks.9/act_1/Tanh_output_0 /gblocks/gblocks.9/act_1/Mul_output_0 0=2
BinaryOp         /gblocks/gblocks.9/Sub   1 1 /gblocks/gblocks.8/Add_output_0_splitncnn_0 /gblocks/gblocks.9/Sub_output_0 0=1 1=1 2=5.000000e-01
BinaryOp         /gblocks/gblocks.9/Add   2 1 /gblocks/gblocks.9/act_1/Mul_output_0 /gblocks/gblocks.9/Sub_output_0 /gblocks/gblocks.9/Add_output_0 0=0
Split            splitncnn_37             1 3 /gblocks/gblocks.9/Add_output_0 /gblocks/gblocks.9/Add_output_0_splitncnn_0 /gblocks/gblocks.9/Add_output_0_splitncnn_1 /gblocks/gblocks.9/Add_output_0_splitncnn_2
Reduction        /gblocks/gblocks.10/norm/ReduceMean 1 1 /gblocks/gblocks.9/Add_output_0_splitncnn_2 /gblocks/gblocks.10/norm/ReduceMean_output_0 0=3 1=0 -23303=1,0 4=1 5=1
BinaryOp         /gblocks/gblocks.10/norm/Sub 2 1 /gblocks/gblocks.9/Add_output_0_splitncnn_1 /gblocks/gblocks.10/norm/ReduceMean_output_0 /gblocks/gblocks.10/norm/Sub_output_0 0=1
Split            splitncnn_38             1 2 /gblocks/gblocks.10/norm/Sub_output_0 /gblocks/gblocks.10/norm/Sub_output_0_splitncnn_0 /gblocks/gblocks.10/norm/Sub_output_0_splitncnn_1
BinaryOp         /gblocks/gblocks.10/norm/Pow 1 1 /gblocks/gblocks.10/norm/Sub_output_0_splitncnn_1 /gblocks/gblocks.10/norm/Pow_output_0 0=6 1=1 2=2.000000e+00
Reduction        /gblocks/gblocks.10/norm/ReduceMean_1 1 1 /gblocks/gblocks.10/norm/Pow_output_0 /gblocks/gblocks.10/norm/ReduceMean_1_output_0 0=3 1=0 -23303=1,0 4=1 5=1
BinaryOp         /gblocks/gblocks.10/norm/Add 1 1 /gblocks/gblocks.10/norm/ReduceMean_1_output_0 /gblocks/gblocks.10/norm/Add_output_0 0=0 1=1 2=1.000000e-06
UnaryOp          /gblocks/gblocks.10/norm/Sqrt 1 1 /gblocks/gblocks.10/norm/Add_output_0 /gblocks/gblocks.10/norm/Sqrt_output_0 0=5
BinaryOp         /gblocks/gblocks.10/norm/Div 2 1 /gblocks/gblocks.10/norm/Sub_output_0_splitncnn_0 /gblocks/gblocks.10/norm/Sqrt_output_0 /gblocks/gblocks.10/norm/Div_output_0 0=3
ExpandDims       /gblocks/gblocks.10/norm/Unsqueeze 2 1 gblocks.10.norm.weight /gblocks/gblocks.10/norm/Constant_2_output_0 /gblocks/gblocks.10/norm/Unsqueeze_output_0 -23303=0
ExpandDims       /gblocks/gblocks.10/norm/Unsqueeze_1 2 1 /gblocks/gblocks.10/norm/Unsqueeze_output_0 /gblocks/gblocks.10/norm/Constant_3_output_0 /gblocks/gblocks.10/norm/Unsqueeze_1_output_0 -23303=0
BinaryOp         /gblocks/gblocks.10/norm/Mul 2 1 /gblocks/gblocks.10/norm/Unsqueeze_1_output_0 /gblocks/gblocks.10/norm/Div_output_0 /gblocks/gblocks.10/norm/Mul_output_0 0=2
ExpandDims       /gblocks/gblocks.10/norm/Unsqueeze_2 2 1 gblocks.10.norm.bias /gblocks/gblocks.10/norm/Constant_4_output_0 /gblocks/gblocks.10/norm/Unsqueeze_2_output_0 -23303=0
ExpandDims       /gblocks/gblocks.10/norm/Unsqueeze_3 2 1 /gblocks/gblocks.10/norm/Unsqueeze_2_output_0 /gblocks/gblocks.10/norm/Constant_5_output_0 /gblocks/gblocks.10/norm/Unsqueeze_3_output_0 -23303=0
BinaryOp         /gblocks/gblocks.10/norm/Add_1 2 1 /gblocks/gblocks.10/norm/Mul_output_0 /gblocks/gblocks.10/norm/Unsqueeze_3_output_0 /gblocks/gblocks.10/norm/Add_1_output_0 0=0
Convolution      /gblocks/gblocks.10/fc1/Conv 1 1 /gblocks/gblocks.10/norm/Add_1_output_0 /gblocks/gblocks.10/fc1/Conv_output_0 0=192 1=3 11=3 2=1 12=1 3=1 13=1 4=1 14=1 15=1 16=1 5=1 6=110592
Slice            /gblocks/gblocks.10/Split 2 3 /gblocks/gblocks.10/fc1/Conv_output_0 onnx::Split_230_splitncnn_14 /gblocks/gblocks.10/Split_output_0 /gblocks/gblocks.10/Split_output_1 /gblocks/gblocks.10/Split_output_2 -23300=3,-233,-233,-233 1=0
Split            splitncnn_39             1 2 /gblocks/gblocks.10/Split_output_0 /gblocks/gblocks.10/Split_output_0_splitncnn_0 /gblocks/gblocks.10/Split_output_0_splitncnn_1
ConvolutionDepthWise /gblocks/gblocks.10/conv/Conv 1 1 /gblocks/gblocks.10/Split_output_2 /gblocks/gblocks.10/conv/Conv_output_0 0=64 1=7 11=7 2=1 12=1 3=1 13=1 4=3 14=3 15=3 16=3 5=1 6=3136 7=64
Softplus         /gblocks/gblocks.10/act/Softplus 1 1 /gblocks/gblocks.10/Split_output_0_splitncnn_1 /gblocks/gblocks.10/act/Softplus_output_0
UnaryOp          /gblocks/gblocks.10/act/Tanh 1 1 /gblocks/gblocks.10/act/Softplus_output_0 /gblocks/gblocks.10/act/Tanh_output_0 0=16
BinaryOp         /gblocks/gblocks.10/act/Mul 2 1 /gblocks/gblocks.10/Split_output_0_splitncnn_0 /gblocks/gblocks.10/act/Tanh_output_0 /gblocks/gblocks.10/act/Mul_output_0 0=2
Concat           /gblocks/gblocks.10/Concat 2 1 /gblocks/gblocks.10/Split_output_1 /gblocks/gblocks.10/conv/Conv_output_0 /gblocks/gblocks.10/Concat_output_0 0=0
BinaryOp         /gblocks/gblocks.10/Mul  2 1 /gblocks/gblocks.10/act/Mul_output_0 /gblocks/gblocks.10/Concat_output_0 /gblocks/gblocks.10/Mul_output_0 0=2
Convolution      /gblocks/gblocks.10/fc2/Conv 1 1 /gblocks/gblocks.10/Mul_output_0 /gblocks/gblocks.10/fc2/Conv_output_0 0=64 1=3 11=3 2=1 12=1 3=1 13=1 4=1 14=1 15=1 16=1 5=1 6=55296
Split            splitncnn_40             1 2 /gblocks/gblocks.10/fc2/Conv_output_0 /gblocks/gblocks.10/fc2/Conv_output_0_splitncnn_0 /gblocks/gblocks.10/fc2/Conv_output_0_splitncnn_1
Softplus         /gblocks/gblocks.10/act_1/Softplus 1 1 /gblocks/gblocks.10/fc2/Conv_output_0_splitncnn_1 /gblocks/gblocks.10/act_1/Softplus_output_0
UnaryOp          /gblocks/gblocks.10/act_1/Tanh 1 1 /gblocks/gblocks.10/act_1/Softplus_output_0 /gblocks/gblocks.10/act_1/Tanh_output_0 0=16
BinaryOp         /gblocks/gblocks.10/act_1/Mul 2 1 /gblocks/gblocks.10/fc2/Conv_output_0_splitncnn_0 /gblocks/gblocks.10/act_1/Tanh_output_0 /gblocks/gblocks.10/act_1/Mul_output_0 0=2
BinaryOp         /gblocks/gblocks.10/Sub  1 1 /gblocks/gblocks.9/Add_output_0_splitncnn_0 /gblocks/gblocks.10/Sub_output_0 0=1 1=1 2=5.000000e-01
BinaryOp         /gblocks/gblocks.10/Add  2 1 /gblocks/gblocks.10/act_1/Mul_output_0 /gblocks/gblocks.10/Sub_output_0 /gblocks/gblocks.10/Add_output_0 0=0
Split            splitncnn_41             1 3 /gblocks/gblocks.10/Add_output_0 /gblocks/gblocks.10/Add_output_0_splitncnn_0 /gblocks/gblocks.10/Add_output_0_splitncnn_1 /gblocks/gblocks.10/Add_output_0_splitncnn_2
Reduction        /gblocks/gblocks.11/norm/ReduceMean 1 1 /gblocks/gblocks.10/Add_output_0_splitncnn_2 /gblocks/gblocks.11/norm/ReduceMean_output_0 0=3 1=0 -23303=1,0 4=1 5=1
BinaryOp         /gblocks/gblocks.11/norm/Sub 2 1 /gblocks/gblocks.10/Add_output_0_splitncnn_1 /gblocks/gblocks.11/norm/ReduceMean_output_0 /gblocks/gblocks.11/norm/Sub_output_0 0=1
Split            splitncnn_42             1 2 /gblocks/gblocks.11/norm/Sub_output_0 /gblocks/gblocks.11/norm/Sub_output_0_splitncnn_0 /gblocks/gblocks.11/norm/Sub_output_0_splitncnn_1
BinaryOp         /gblocks/gblocks.11/norm/Pow 1 1 /gblocks/gblocks.11/norm/Sub_output_0_splitncnn_1 /gblocks/gblocks.11/norm/Pow_output_0 0=6 1=1 2=2.000000e+00
Reduction        /gblocks/gblocks.11/norm/ReduceMean_1 1 1 /gblocks/gblocks.11/norm/Pow_output_0 /gblocks/gblocks.11/norm/ReduceMean_1_output_0 0=3 1=0 -23303=1,0 4=1 5=1
BinaryOp         /gblocks/gblocks.11/norm/Add 1 1 /gblocks/gblocks.11/norm/ReduceMean_1_output_0 /gblocks/gblocks.11/norm/Add_output_0 0=0 1=1 2=1.000000e-06
UnaryOp          /gblocks/gblocks.11/norm/Sqrt 1 1 /gblocks/gblocks.11/norm/Add_output_0 /gblocks/gblocks.11/norm/Sqrt_output_0 0=5
BinaryOp         /gblocks/gblocks.11/norm/Div 2 1 /gblocks/gblocks.11/norm/Sub_output_0_splitncnn_0 /gblocks/gblocks.11/norm/Sqrt_output_0 /gblocks/gblocks.11/norm/Div_output_0 0=3
ExpandDims       /gblocks/gblocks.11/norm/Unsqueeze 2 1 gblocks.11.norm.weight /gblocks/gblocks.11/norm/Constant_2_output_0 /gblocks/gblocks.11/norm/Unsqueeze_output_0 -23303=0
ExpandDims       /gblocks/gblocks.11/norm/Unsqueeze_1 2 1 /gblocks/gblocks.11/norm/Unsqueeze_output_0 /gblocks/gblocks.11/norm/Constant_3_output_0 /gblocks/gblocks.11/norm/Unsqueeze_1_output_0 -23303=0
BinaryOp         /gblocks/gblocks.11/norm/Mul 2 1 /gblocks/gblocks.11/norm/Unsqueeze_1_output_0 /gblocks/gblocks.11/norm/Div_output_0 /gblocks/gblocks.11/norm/Mul_output_0 0=2
ExpandDims       /gblocks/gblocks.11/norm/Unsqueeze_2 2 1 gblocks.11.norm.bias /gblocks/gblocks.11/norm/Constant_4_output_0 /gblocks/gblocks.11/norm/Unsqueeze_2_output_0 -23303=0
ExpandDims       /gblocks/gblocks.11/norm/Unsqueeze_3 2 1 /gblocks/gblocks.11/norm/Unsqueeze_2_output_0 /gblocks/gblocks.11/norm/Constant_5_output_0 /gblocks/gblocks.11/norm/Unsqueeze_3_output_0 -23303=0
BinaryOp         /gblocks/gblocks.11/norm/Add_1 2 1 /gblocks/gblocks.11/norm/Mul_output_0 /gblocks/gblocks.11/norm/Unsqueeze_3_output_0 /gblocks/gblocks.11/norm/Add_1_output_0 0=0
Convolution      /gblocks/gblocks.11/fc1/Conv 1 1 /gblocks/gblocks.11/norm/Add_1_output_0 /gblocks/gblocks.11/fc1/Conv_output_0 0=192 1=3 11=3 2=1 12=1 3=1 13=1 4=1 14=1 15=1 16=1 5=1 6=110592
Slice            /gblocks/gblocks.11/Split 2 3 /gblocks/gblocks.11/fc1/Conv_output_0 onnx::Split_230_splitncnn_13 /gblocks/gblocks.11/Split_output_0 /gblocks/gblocks.11/Split_output_1 /gblocks/gblocks.11/Split_output_2 -23300=3,-233,-233,-233 1=0
Split            splitncnn_43             1 2 /gblocks/gblocks.11/Split_output_0 /gblocks/gblocks.11/Split_output_0_splitncnn_0 /gblocks/gblocks.11/Split_output_0_splitncnn_1
ConvolutionDepthWise /gblocks/gblocks.11/conv/Conv 1 1 /gblocks/gblocks.11/Split_output_2 /gblocks/gblocks.11/conv/Conv_output_0 0=64 1=7 11=7 2=1 12=1 3=1 13=1 4=3 14=3 15=3 16=3 5=1 6=3136 7=64
Softplus         /gblocks/gblocks.11/act/Softplus 1 1 /gblocks/gblocks.11/Split_output_0_splitncnn_1 /gblocks/gblocks.11/act/Softplus_output_0
UnaryOp          /gblocks/gblocks.11/act/Tanh 1 1 /gblocks/gblocks.11/act/Softplus_output_0 /gblocks/gblocks.11/act/Tanh_output_0 0=16
BinaryOp         /gblocks/gblocks.11/act/Mul 2 1 /gblocks/gblocks.11/Split_output_0_splitncnn_0 /gblocks/gblocks.11/act/Tanh_output_0 /gblocks/gblocks.11/act/Mul_output_0 0=2
Concat           /gblocks/gblocks.11/Concat 2 1 /gblocks/gblocks.11/Split_output_1 /gblocks/gblocks.11/conv/Conv_output_0 /gblocks/gblocks.11/Concat_output_0 0=0
BinaryOp         /gblocks/gblocks.11/Mul  2 1 /gblocks/gblocks.11/act/Mul_output_0 /gblocks/gblocks.11/Concat_output_0 /gblocks/gblocks.11/Mul_output_0 0=2
Convolution      /gblocks/gblocks.11/fc2/Conv 1 1 /gblocks/gblocks.11/Mul_output_0 /gblocks/gblocks.11/fc2/Conv_output_0 0=64 1=3 11=3 2=1 12=1 3=1 13=1 4=1 14=1 15=1 16=1 5=1 6=55296
Split            splitncnn_44             1 2 /gblocks/gblocks.11/fc2/Conv_output_0 /gblocks/gblocks.11/fc2/Conv_output_0_splitncnn_0 /gblocks/gblocks.11/fc2/Conv_output_0_splitncnn_1
Softplus         /gblocks/gblocks.11/act_1/Softplus 1 1 /gblocks/gblocks.11/fc2/Conv_output_0_splitncnn_1 /gblocks/gblocks.11/act_1/Softplus_output_0
UnaryOp          /gblocks/gblocks.11/act_1/Tanh 1 1 /gblocks/gblocks.11/act_1/Softplus_output_0 /gblocks/gblocks.11/act_1/Tanh_output_0 0=16
BinaryOp         /gblocks/gblocks.11/act_1/Mul 2 1 /gblocks/gblocks.11/fc2/Conv_output_0_splitncnn_0 /gblocks/gblocks.11/act_1/Tanh_output_0 /gblocks/gblocks.11/act_1/Mul_output_0 0=2
BinaryOp         /gblocks/gblocks.11/Sub  1 1 /gblocks/gblocks.10/Add_output_0_splitncnn_0 /gblocks/gblocks.11/Sub_output_0 0=1 1=1 2=5.000000e-01
BinaryOp         /gblocks/gblocks.11/Add  2 1 /gblocks/gblocks.11/act_1/Mul_output_0 /gblocks/gblocks.11/Sub_output_0 /gblocks/gblocks.11/Add_output_0 0=0
Split            splitncnn_45             1 3 /gblocks/gblocks.11/Add_output_0 /gblocks/gblocks.11/Add_output_0_splitncnn_0 /gblocks/gblocks.11/Add_output_0_splitncnn_1 /gblocks/gblocks.11/Add_output_0_splitncnn_2
Reduction        /gblocks/gblocks.12/norm/ReduceMean 1 1 /gblocks/gblocks.11/Add_output_0_splitncnn_2 /gblocks/gblocks.12/norm/ReduceMean_output_0 0=3 1=0 -23303=1,0 4=1 5=1
BinaryOp         /gblocks/gblocks.12/norm/Sub 2 1 /gblocks/gblocks.11/Add_output_0_splitncnn_1 /gblocks/gblocks.12/norm/ReduceMean_output_0 /gblocks/gblocks.12/norm/Sub_output_0 0=1
Split            splitncnn_46             1 2 /gblocks/gblocks.12/norm/Sub_output_0 /gblocks/gblocks.12/norm/Sub_output_0_splitncnn_0 /gblocks/gblocks.12/norm/Sub_output_0_splitncnn_1
BinaryOp         /gblocks/gblocks.12/norm/Pow 1 1 /gblocks/gblocks.12/norm/Sub_output_0_splitncnn_1 /gblocks/gblocks.12/norm/Pow_output_0 0=6 1=1 2=2.000000e+00
Reduction        /gblocks/gblocks.12/norm/ReduceMean_1 1 1 /gblocks/gblocks.12/norm/Pow_output_0 /gblocks/gblocks.12/norm/ReduceMean_1_output_0 0=3 1=0 -23303=1,0 4=1 5=1
BinaryOp         /gblocks/gblocks.12/norm/Add 1 1 /gblocks/gblocks.12/norm/ReduceMean_1_output_0 /gblocks/gblocks.12/norm/Add_output_0 0=0 1=1 2=1.000000e-06
UnaryOp          /gblocks/gblocks.12/norm/Sqrt 1 1 /gblocks/gblocks.12/norm/Add_output_0 /gblocks/gblocks.12/norm/Sqrt_output_0 0=5
BinaryOp         /gblocks/gblocks.12/norm/Div 2 1 /gblocks/gblocks.12/norm/Sub_output_0_splitncnn_0 /gblocks/gblocks.12/norm/Sqrt_output_0 /gblocks/gblocks.12/norm/Div_output_0 0=3
ExpandDims       /gblocks/gblocks.12/norm/Unsqueeze 2 1 gblocks.12.norm.weight /gblocks/gblocks.12/norm/Constant_2_output_0 /gblocks/gblocks.12/norm/Unsqueeze_output_0 -23303=0
ExpandDims       /gblocks/gblocks.12/norm/Unsqueeze_1 2 1 /gblocks/gblocks.12/norm/Unsqueeze_output_0 /gblocks/gblocks.12/norm/Constant_3_output_0 /gblocks/gblocks.12/norm/Unsqueeze_1_output_0 -23303=0
BinaryOp         /gblocks/gblocks.12/norm/Mul 2 1 /gblocks/gblocks.12/norm/Unsqueeze_1_output_0 /gblocks/gblocks.12/norm/Div_output_0 /gblocks/gblocks.12/norm/Mul_output_0 0=2
ExpandDims       /gblocks/gblocks.12/norm/Unsqueeze_2 2 1 gblocks.12.norm.bias /gblocks/gblocks.12/norm/Constant_4_output_0 /gblocks/gblocks.12/norm/Unsqueeze_2_output_0 -23303=0
ExpandDims       /gblocks/gblocks.12/norm/Unsqueeze_3 2 1 /gblocks/gblocks.12/norm/Unsqueeze_2_output_0 /gblocks/gblocks.12/norm/Constant_5_output_0 /gblocks/gblocks.12/norm/Unsqueeze_3_output_0 -23303=0
BinaryOp         /gblocks/gblocks.12/norm/Add_1 2 1 /gblocks/gblocks.12/norm/Mul_output_0 /gblocks/gblocks.12/norm/Unsqueeze_3_output_0 /gblocks/gblocks.12/norm/Add_1_output_0 0=0
Convolution      /gblocks/gblocks.12/fc1/Conv 1 1 /gblocks/gblocks.12/norm/Add_1_output_0 /gblocks/gblocks.12/fc1/Conv_output_0 0=192 1=3 11=3 2=1 12=1 3=1 13=1 4=1 14=1 15=1 16=1 5=1 6=110592
Slice            /gblocks/gblocks.12/Split 2 3 /gblocks/gblocks.12/fc1/Conv_output_0 onnx::Split_230_splitncnn_12 /gblocks/gblocks.12/Split_output_0 /gblocks/gblocks.12/Split_output_1 /gblocks/gblocks.12/Split_output_2 -23300=3,-233,-233,-233 1=0
Split            splitncnn_47             1 2 /gblocks/gblocks.12/Split_output_0 /gblocks/gblocks.12/Split_output_0_splitncnn_0 /gblocks/gblocks.12/Split_output_0_splitncnn_1
ConvolutionDepthWise /gblocks/gblocks.12/conv/Conv 1 1 /gblocks/gblocks.12/Split_output_2 /gblocks/gblocks.12/conv/Conv_output_0 0=64 1=7 11=7 2=1 12=1 3=1 13=1 4=3 14=3 15=3 16=3 5=1 6=3136 7=64
Softplus         /gblocks/gblocks.12/act/Softplus 1 1 /gblocks/gblocks.12/Split_output_0_splitncnn_1 /gblocks/gblocks.12/act/Softplus_output_0
UnaryOp          /gblocks/gblocks.12/act/Tanh 1 1 /gblocks/gblocks.12/act/Softplus_output_0 /gblocks/gblocks.12/act/Tanh_output_0 0=16
BinaryOp         /gblocks/gblocks.12/act/Mul 2 1 /gblocks/gblocks.12/Split_output_0_splitncnn_0 /gblocks/gblocks.12/act/Tanh_output_0 /gblocks/gblocks.12/act/Mul_output_0 0=2
Concat           /gblocks/gblocks.12/Concat 2 1 /gblocks/gblocks.12/Split_output_1 /gblocks/gblocks.12/conv/Conv_output_0 /gblocks/gblocks.12/Concat_output_0 0=0
BinaryOp         /gblocks/gblocks.12/Mul  2 1 /gblocks/gblocks.12/act/Mul_output_0 /gblocks/gblocks.12/Concat_output_0 /gblocks/gblocks.12/Mul_output_0 0=2
Convolution      /gblocks/gblocks.12/fc2/Conv 1 1 /gblocks/gblocks.12/Mul_output_0 /gblocks/gblocks.12/fc2/Conv_output_0 0=64 1=3 11=3 2=1 12=1 3=1 13=1 4=1 14=1 15=1 16=1 5=1 6=55296
Split            splitncnn_48             1 2 /gblocks/gblocks.12/fc2/Conv_output_0 /gblocks/gblocks.12/fc2/Conv_output_0_splitncnn_0 /gblocks/gblocks.12/fc2/Conv_output_0_splitncnn_1
Softplus         /gblocks/gblocks.12/act_1/Softplus 1 1 /gblocks/gblocks.12/fc2/Conv_output_0_splitncnn_1 /gblocks/gblocks.12/act_1/Softplus_output_0
UnaryOp          /gblocks/gblocks.12/act_1/Tanh 1 1 /gblocks/gblocks.12/act_1/Softplus_output_0 /gblocks/gblocks.12/act_1/Tanh_output_0 0=16
BinaryOp         /gblocks/gblocks.12/act_1/Mul 2 1 /gblocks/gblocks.12/fc2/Conv_output_0_splitncnn_0 /gblocks/gblocks.12/act_1/Tanh_output_0 /gblocks/gblocks.12/act_1/Mul_output_0 0=2
BinaryOp         /gblocks/gblocks.12/Sub  1 1 /gblocks/gblocks.11/Add_output_0_splitncnn_0 /gblocks/gblocks.12/Sub_output_0 0=1 1=1 2=5.000000e-01
BinaryOp         /gblocks/gblocks.12/Add  2 1 /gblocks/gblocks.12/act_1/Mul_output_0 /gblocks/gblocks.12/Sub_output_0 /gblocks/gblocks.12/Add_output_0 0=0
Split            splitncnn_49             1 3 /gblocks/gblocks.12/Add_output_0 /gblocks/gblocks.12/Add_output_0_splitncnn_0 /gblocks/gblocks.12/Add_output_0_splitncnn_1 /gblocks/gblocks.12/Add_output_0_splitncnn_2
Reduction        /gblocks/gblocks.13/norm/ReduceMean 1 1 /gblocks/gblocks.12/Add_output_0_splitncnn_2 /gblocks/gblocks.13/norm/ReduceMean_output_0 0=3 1=0 -23303=1,0 4=1 5=1
BinaryOp         /gblocks/gblocks.13/norm/Sub 2 1 /gblocks/gblocks.12/Add_output_0_splitncnn_1 /gblocks/gblocks.13/norm/ReduceMean_output_0 /gblocks/gblocks.13/norm/Sub_output_0 0=1
Split            splitncnn_50             1 2 /gblocks/gblocks.13/norm/Sub_output_0 /gblocks/gblocks.13/norm/Sub_output_0_splitncnn_0 /gblocks/gblocks.13/norm/Sub_output_0_splitncnn_1
BinaryOp         /gblocks/gblocks.13/norm/Pow 1 1 /gblocks/gblocks.13/norm/Sub_output_0_splitncnn_1 /gblocks/gblocks.13/norm/Pow_output_0 0=6 1=1 2=2.000000e+00
Reduction        /gblocks/gblocks.13/norm/ReduceMean_1 1 1 /gblocks/gblocks.13/norm/Pow_output_0 /gblocks/gblocks.13/norm/ReduceMean_1_output_0 0=3 1=0 -23303=1,0 4=1 5=1
BinaryOp         /gblocks/gblocks.13/norm/Add 1 1 /gblocks/gblocks.13/norm/ReduceMean_1_output_0 /gblocks/gblocks.13/norm/Add_output_0 0=0 1=1 2=1.000000e-06
UnaryOp          /gblocks/gblocks.13/norm/Sqrt 1 1 /gblocks/gblocks.13/norm/Add_output_0 /gblocks/gblocks.13/norm/Sqrt_output_0 0=5
BinaryOp         /gblocks/gblocks.13/norm/Div 2 1 /gblocks/gblocks.13/norm/Sub_output_0_splitncnn_0 /gblocks/gblocks.13/norm/Sqrt_output_0 /gblocks/gblocks.13/norm/Div_output_0 0=3
ExpandDims       /gblocks/gblocks.13/norm/Unsqueeze 2 1 gblocks.13.norm.weight /gblocks/gblocks.13/norm/Constant_2_output_0 /gblocks/gblocks.13/norm/Unsqueeze_output_0 -23303=0
ExpandDims       /gblocks/gblocks.13/norm/Unsqueeze_1 2 1 /gblocks/gblocks.13/norm/Unsqueeze_output_0 /gblocks/gblocks.13/norm/Constant_3_output_0 /gblocks/gblocks.13/norm/Unsqueeze_1_output_0 -23303=0
BinaryOp         /gblocks/gblocks.13/norm/Mul 2 1 /gblocks/gblocks.13/norm/Unsqueeze_1_output_0 /gblocks/gblocks.13/norm/Div_output_0 /gblocks/gblocks.13/norm/Mul_output_0 0=2
ExpandDims       /gblocks/gblocks.13/norm/Unsqueeze_2 2 1 gblocks.13.norm.bias /gblocks/gblocks.13/norm/Constant_4_output_0 /gblocks/gblocks.13/norm/Unsqueeze_2_output_0 -23303=0
ExpandDims       /gblocks/gblocks.13/norm/Unsqueeze_3 2 1 /gblocks/gblocks.13/norm/Unsqueeze_2_output_0 /gblocks/gblocks.13/norm/Constant_5_output_0 /gblocks/gblocks.13/norm/Unsqueeze_3_output_0 -23303=0
BinaryOp         /gblocks/gblocks.13/norm/Add_1 2 1 /gblocks/gblocks.13/norm/Mul_output_0 /gblocks/gblocks.13/norm/Unsqueeze_3_output_0 /gblocks/gblocks.13/norm/Add_1_output_0 0=0
Convolution      /gblocks/gblocks.13/fc1/Conv 1 1 /gblocks/gblocks.13/norm/Add_1_output_0 /gblocks/gblocks.13/fc1/Conv_output_0 0=192 1=3 11=3 2=1 12=1 3=1 13=1 4=1 14=1 15=1 16=1 5=1 6=110592
Slice            /gblocks/gblocks.13/Split 2 3 /gblocks/gblocks.13/fc1/Conv_output_0 onnx::Split_230_splitncnn_11 /gblocks/gblocks.13/Split_output_0 /gblocks/gblocks.13/Split_output_1 /gblocks/gblocks.13/Split_output_2 -23300=3,-233,-233,-233 1=0
Split            splitncnn_51             1 2 /gblocks/gblocks.13/Split_output_0 /gblocks/gblocks.13/Split_output_0_splitncnn_0 /gblocks/gblocks.13/Split_output_0_splitncnn_1
ConvolutionDepthWise /gblocks/gblocks.13/conv/Conv 1 1 /gblocks/gblocks.13/Split_output_2 /gblocks/gblocks.13/conv/Conv_output_0 0=64 1=7 11=7 2=1 12=1 3=1 13=1 4=3 14=3 15=3 16=3 5=1 6=3136 7=64
Softplus         /gblocks/gblocks.13/act/Softplus 1 1 /gblocks/gblocks.13/Split_output_0_splitncnn_1 /gblocks/gblocks.13/act/Softplus_output_0
UnaryOp          /gblocks/gblocks.13/act/Tanh 1 1 /gblocks/gblocks.13/act/Softplus_output_0 /gblocks/gblocks.13/act/Tanh_output_0 0=16
BinaryOp         /gblocks/gblocks.13/act/Mul 2 1 /gblocks/gblocks.13/Split_output_0_splitncnn_0 /gblocks/gblocks.13/act/Tanh_output_0 /gblocks/gblocks.13/act/Mul_output_0 0=2
Concat           /gblocks/gblocks.13/Concat 2 1 /gblocks/gblocks.13/Split_output_1 /gblocks/gblocks.13/conv/Conv_output_0 /gblocks/gblocks.13/Concat_output_0 0=0
BinaryOp         /gblocks/gblocks.13/Mul  2 1 /gblocks/gblocks.13/act/Mul_output_0 /gblocks/gblocks.13/Concat_output_0 /gblocks/gblocks.13/Mul_output_0 0=2
Convolution      /gblocks/gblocks.13/fc2/Conv 1 1 /gblocks/gblocks.13/Mul_output_0 /gblocks/gblocks.13/fc2/Conv_output_0 0=64 1=3 11=3 2=1 12=1 3=1 13=1 4=1 14=1 15=1 16=1 5=1 6=55296
Split            splitncnn_52             1 2 /gblocks/gblocks.13/fc2/Conv_output_0 /gblocks/gblocks.13/fc2/Conv_output_0_splitncnn_0 /gblocks/gblocks.13/fc2/Conv_output_0_splitncnn_1
Softplus         /gblocks/gblocks.13/act_1/Softplus 1 1 /gblocks/gblocks.13/fc2/Conv_output_0_splitncnn_1 /gblocks/gblocks.13/act_1/Softplus_output_0
UnaryOp          /gblocks/gblocks.13/act_1/Tanh 1 1 /gblocks/gblocks.13/act_1/Softplus_output_0 /gblocks/gblocks.13/act_1/Tanh_output_0 0=16
BinaryOp         /gblocks/gblocks.13/act_1/Mul 2 1 /gblocks/gblocks.13/fc2/Conv_output_0_splitncnn_0 /gblocks/gblocks.13/act_1/Tanh_output_0 /gblocks/gblocks.13/act_1/Mul_output_0 0=2
BinaryOp         /gblocks/gblocks.13/Sub  1 1 /gblocks/gblocks.12/Add_output_0_splitncnn_0 /gblocks/gblocks.13/Sub_output_0 0=1 1=1 2=5.000000e-01
BinaryOp         /gblocks/gblocks.13/Add  2 1 /gblocks/gblocks.13/act_1/Mul_output_0 /gblocks/gblocks.13/Sub_output_0 /gblocks/gblocks.13/Add_output_0 0=0
Split            splitncnn_53             1 3 /gblocks/gblocks.13/Add_output_0 /gblocks/gblocks.13/Add_output_0_splitncnn_0 /gblocks/gblocks.13/Add_output_0_splitncnn_1 /gblocks/gblocks.13/Add_output_0_splitncnn_2
Reduction        /gblocks/gblocks.14/norm/ReduceMean 1 1 /gblocks/gblocks.13/Add_output_0_splitncnn_2 /gblocks/gblocks.14/norm/ReduceMean_output_0 0=3 1=0 -23303=1,0 4=1 5=1
BinaryOp         /gblocks/gblocks.14/norm/Sub 2 1 /gblocks/gblocks.13/Add_output_0_splitncnn_1 /gblocks/gblocks.14/norm/ReduceMean_output_0 /gblocks/gblocks.14/norm/Sub_output_0 0=1
Split            splitncnn_54             1 2 /gblocks/gblocks.14/norm/Sub_output_0 /gblocks/gblocks.14/norm/Sub_output_0_splitncnn_0 /gblocks/gblocks.14/norm/Sub_output_0_splitncnn_1
BinaryOp         /gblocks/gblocks.14/norm/Pow 1 1 /gblocks/gblocks.14/norm/Sub_output_0_splitncnn_1 /gblocks/gblocks.14/norm/Pow_output_0 0=6 1=1 2=2.000000e+00
Reduction        /gblocks/gblocks.14/norm/ReduceMean_1 1 1 /gblocks/gblocks.14/norm/Pow_output_0 /gblocks/gblocks.14/norm/ReduceMean_1_output_0 0=3 1=0 -23303=1,0 4=1 5=1
BinaryOp         /gblocks/gblocks.14/norm/Add 1 1 /gblocks/gblocks.14/norm/ReduceMean_1_output_0 /gblocks/gblocks.14/norm/Add_output_0 0=0 1=1 2=1.000000e-06
UnaryOp          /gblocks/gblocks.14/norm/Sqrt 1 1 /gblocks/gblocks.14/norm/Add_output_0 /gblocks/gblocks.14/norm/Sqrt_output_0 0=5
BinaryOp         /gblocks/gblocks.14/norm/Div 2 1 /gblocks/gblocks.14/norm/Sub_output_0_splitncnn_0 /gblocks/gblocks.14/norm/Sqrt_output_0 /gblocks/gblocks.14/norm/Div_output_0 0=3
ExpandDims       /gblocks/gblocks.14/norm/Unsqueeze 2 1 gblocks.14.norm.weight /gblocks/gblocks.14/norm/Constant_2_output_0 /gblocks/gblocks.14/norm/Unsqueeze_output_0 -23303=0
ExpandDims       /gblocks/gblocks.14/norm/Unsqueeze_1 2 1 /gblocks/gblocks.14/norm/Unsqueeze_output_0 /gblocks/gblocks.14/norm/Constant_3_output_0 /gblocks/gblocks.14/norm/Unsqueeze_1_output_0 -23303=0
BinaryOp         /gblocks/gblocks.14/norm/Mul 2 1 /gblocks/gblocks.14/norm/Unsqueeze_1_output_0 /gblocks/gblocks.14/norm/Div_output_0 /gblocks/gblocks.14/norm/Mul_output_0 0=2
ExpandDims       /gblocks/gblocks.14/norm/Unsqueeze_2 2 1 gblocks.14.norm.bias /gblocks/gblocks.14/norm/Constant_4_output_0 /gblocks/gblocks.14/norm/Unsqueeze_2_output_0 -23303=0
ExpandDims       /gblocks/gblocks.14/norm/Unsqueeze_3 2 1 /gblocks/gblocks.14/norm/Unsqueeze_2_output_0 /gblocks/gblocks.14/norm/Constant_5_output_0 /gblocks/gblocks.14/norm/Unsqueeze_3_output_0 -23303=0
BinaryOp         /gblocks/gblocks.14/norm/Add_1 2 1 /gblocks/gblocks.14/norm/Mul_output_0 /gblocks/gblocks.14/norm/Unsqueeze_3_output_0 /gblocks/gblocks.14/norm/Add_1_output_0 0=0
Convolution      /gblocks/gblocks.14/fc1/Conv 1 1 /gblocks/gblocks.14/norm/Add_1_output_0 /gblocks/gblocks.14/fc1/Conv_output_0 0=192 1=3 11=3 2=1 12=1 3=1 13=1 4=1 14=1 15=1 16=1 5=1 6=110592
Slice            /gblocks/gblocks.14/Split 2 3 /gblocks/gblocks.14/fc1/Conv_output_0 onnx::Split_230_splitncnn_10 /gblocks/gblocks.14/Split_output_0 /gblocks/gblocks.14/Split_output_1 /gblocks/gblocks.14/Split_output_2 -23300=3,-233,-233,-233 1=0
Split            splitncnn_55             1 2 /gblocks/gblocks.14/Split_output_0 /gblocks/gblocks.14/Split_output_0_splitncnn_0 /gblocks/gblocks.14/Split_output_0_splitncnn_1
ConvolutionDepthWise /gblocks/gblocks.14/conv/Conv 1 1 /gblocks/gblocks.14/Split_output_2 /gblocks/gblocks.14/conv/Conv_output_0 0=64 1=7 11=7 2=1 12=1 3=1 13=1 4=3 14=3 15=3 16=3 5=1 6=3136 7=64
Softplus         /gblocks/gblocks.14/act/Softplus 1 1 /gblocks/gblocks.14/Split_output_0_splitncnn_1 /gblocks/gblocks.14/act/Softplus_output_0
UnaryOp          /gblocks/gblocks.14/act/Tanh 1 1 /gblocks/gblocks.14/act/Softplus_output_0 /gblocks/gblocks.14/act/Tanh_output_0 0=16
BinaryOp         /gblocks/gblocks.14/act/Mul 2 1 /gblocks/gblocks.14/Split_output_0_splitncnn_0 /gblocks/gblocks.14/act/Tanh_output_0 /gblocks/gblocks.14/act/Mul_output_0 0=2
Concat           /gblocks/gblocks.14/Concat 2 1 /gblocks/gblocks.14/Split_output_1 /gblocks/gblocks.14/conv/Conv_output_0 /gblocks/gblocks.14/Concat_output_0 0=0
BinaryOp         /gblocks/gblocks.14/Mul  2 1 /gblocks/gblocks.14/act/Mul_output_0 /gblocks/gblocks.14/Concat_output_0 /gblocks/gblocks.14/Mul_output_0 0=2
Convolution      /gblocks/gblocks.14/fc2/Conv 1 1 /gblocks/gblocks.14/Mul_output_0 /gblocks/gblocks.14/fc2/Conv_output_0 0=64 1=3 11=3 2=1 12=1 3=1 13=1 4=1 14=1 15=1 16=1 5=1 6=55296
Split            splitncnn_56             1 2 /gblocks/gblocks.14/fc2/Conv_output_0 /gblocks/gblocks.14/fc2/Conv_output_0_splitncnn_0 /gblocks/gblocks.14/fc2/Conv_output_0_splitncnn_1
Softplus         /gblocks/gblocks.14/act_1/Softplus 1 1 /gblocks/gblocks.14/fc2/Conv_output_0_splitncnn_1 /gblocks/gblocks.14/act_1/Softplus_output_0
UnaryOp          /gblocks/gblocks.14/act_1/Tanh 1 1 /gblocks/gblocks.14/act_1/Softplus_output_0 /gblocks/gblocks.14/act_1/Tanh_output_0 0=16
BinaryOp         /gblocks/gblocks.14/act_1/Mul 2 1 /gblocks/gblocks.14/fc2/Conv_output_0_splitncnn_0 /gblocks/gblocks.14/act_1/Tanh_output_0 /gblocks/gblocks.14/act_1/Mul_output_0 0=2
BinaryOp         /gblocks/gblocks.14/Sub  1 1 /gblocks/gblocks.13/Add_output_0_splitncnn_0 /gblocks/gblocks.14/Sub_output_0 0=1 1=1 2=5.000000e-01
BinaryOp         /gblocks/gblocks.14/Add  2 1 /gblocks/gblocks.14/act_1/Mul_output_0 /gblocks/gblocks.14/Sub_output_0 /gblocks/gblocks.14/Add_output_0 0=0
Split            splitncnn_57             1 3 /gblocks/gblocks.14/Add_output_0 /gblocks/gblocks.14/Add_output_0_splitncnn_0 /gblocks/gblocks.14/Add_output_0_splitncnn_1 /gblocks/gblocks.14/Add_output_0_splitncnn_2
Reduction        /gblocks/gblocks.15/norm/ReduceMean 1 1 /gblocks/gblocks.14/Add_output_0_splitncnn_2 /gblocks/gblocks.15/norm/ReduceMean_output_0 0=3 1=0 -23303=1,0 4=1 5=1
BinaryOp         /gblocks/gblocks.15/norm/Sub 2 1 /gblocks/gblocks.14/Add_output_0_splitncnn_1 /gblocks/gblocks.15/norm/ReduceMean_output_0 /gblocks/gblocks.15/norm/Sub_output_0 0=1
Split            splitncnn_58             1 2 /gblocks/gblocks.15/norm/Sub_output_0 /gblocks/gblocks.15/norm/Sub_output_0_splitncnn_0 /gblocks/gblocks.15/norm/Sub_output_0_splitncnn_1
BinaryOp         /gblocks/gblocks.15/norm/Pow 1 1 /gblocks/gblocks.15/norm/Sub_output_0_splitncnn_1 /gblocks/gblocks.15/norm/Pow_output_0 0=6 1=1 2=2.000000e+00
Reduction        /gblocks/gblocks.15/norm/ReduceMean_1 1 1 /gblocks/gblocks.15/norm/Pow_output_0 /gblocks/gblocks.15/norm/ReduceMean_1_output_0 0=3 1=0 -23303=1,0 4=1 5=1
BinaryOp         /gblocks/gblocks.15/norm/Add 1 1 /gblocks/gblocks.15/norm/ReduceMean_1_output_0 /gblocks/gblocks.15/norm/Add_output_0 0=0 1=1 2=1.000000e-06
UnaryOp          /gblocks/gblocks.15/norm/Sqrt 1 1 /gblocks/gblocks.15/norm/Add_output_0 /gblocks/gblocks.15/norm/Sqrt_output_0 0=5
BinaryOp         /gblocks/gblocks.15/norm/Div 2 1 /gblocks/gblocks.15/norm/Sub_output_0_splitncnn_0 /gblocks/gblocks.15/norm/Sqrt_output_0 /gblocks/gblocks.15/norm/Div_output_0 0=3
ExpandDims       /gblocks/gblocks.15/norm/Unsqueeze 2 1 gblocks.15.norm.weight /gblocks/gblocks.15/norm/Constant_2_output_0 /gblocks/gblocks.15/norm/Unsqueeze_output_0 -23303=0
ExpandDims       /gblocks/gblocks.15/norm/Unsqueeze_1 2 1 /gblocks/gblocks.15/norm/Unsqueeze_output_0 /gblocks/gblocks.15/norm/Constant_3_output_0 /gblocks/gblocks.15/norm/Unsqueeze_1_output_0 -23303=0
BinaryOp         /gblocks/gblocks.15/norm/Mul 2 1 /gblocks/gblocks.15/norm/Unsqueeze_1_output_0 /gblocks/gblocks.15/norm/Div_output_0 /gblocks/gblocks.15/norm/Mul_output_0 0=2
ExpandDims       /gblocks/gblocks.15/norm/Unsqueeze_2 2 1 gblocks.15.norm.bias /gblocks/gblocks.15/norm/Constant_4_output_0 /gblocks/gblocks.15/norm/Unsqueeze_2_output_0 -23303=0
ExpandDims       /gblocks/gblocks.15/norm/Unsqueeze_3 2 1 /gblocks/gblocks.15/norm/Unsqueeze_2_output_0 /gblocks/gblocks.15/norm/Constant_5_output_0 /gblocks/gblocks.15/norm/Unsqueeze_3_output_0 -23303=0
BinaryOp         /gblocks/gblocks.15/norm/Add_1 2 1 /gblocks/gblocks.15/norm/Mul_output_0 /gblocks/gblocks.15/norm/Unsqueeze_3_output_0 /gblocks/gblocks.15/norm/Add_1_output_0 0=0
Convolution      /gblocks/gblocks.15/fc1/Conv 1 1 /gblocks/gblocks.15/norm/Add_1_output_0 /gblocks/gblocks.15/fc1/Conv_output_0 0=192 1=3 11=3 2=1 12=1 3=1 13=1 4=1 14=1 15=1 16=1 5=1 6=110592
Slice            /gblocks/gblocks.15/Split 2 3 /gblocks/gblocks.15/fc1/Conv_output_0 onnx::Split_230_splitncnn_9 /gblocks/gblocks.15/Split_output_0 /gblocks/gblocks.15/Split_output_1 /gblocks/gblocks.15/Split_output_2 -23300=3,-233,-233,-233 1=0
Split            splitncnn_59             1 2 /gblocks/gblocks.15/Split_output_0 /gblocks/gblocks.15/Split_output_0_splitncnn_0 /gblocks/gblocks.15/Split_output_0_splitncnn_1
ConvolutionDepthWise /gblocks/gblocks.15/conv/Conv 1 1 /gblocks/gblocks.15/Split_output_2 /gblocks/gblocks.15/conv/Conv_output_0 0=64 1=7 11=7 2=1 12=1 3=1 13=1 4=3 14=3 15=3 16=3 5=1 6=3136 7=64
Softplus         /gblocks/gblocks.15/act/Softplus 1 1 /gblocks/gblocks.15/Split_output_0_splitncnn_1 /gblocks/gblocks.15/act/Softplus_output_0
UnaryOp          /gblocks/gblocks.15/act/Tanh 1 1 /gblocks/gblocks.15/act/Softplus_output_0 /gblocks/gblocks.15/act/Tanh_output_0 0=16
BinaryOp         /gblocks/gblocks.15/act/Mul 2 1 /gblocks/gblocks.15/Split_output_0_splitncnn_0 /gblocks/gblocks.15/act/Tanh_output_0 /gblocks/gblocks.15/act/Mul_output_0 0=2
Concat           /gblocks/gblocks.15/Concat 2 1 /gblocks/gblocks.15/Split_output_1 /gblocks/gblocks.15/conv/Conv_output_0 /gblocks/gblocks.15/Concat_output_0 0=0
BinaryOp         /gblocks/gblocks.15/Mul  2 1 /gblocks/gblocks.15/act/Mul_output_0 /gblocks/gblocks.15/Concat_output_0 /gblocks/gblocks.15/Mul_output_0 0=2
Convolution      /gblocks/gblocks.15/fc2/Conv 1 1 /gblocks/gblocks.15/Mul_output_0 /gblocks/gblocks.15/fc2/Conv_output_0 0=64 1=3 11=3 2=1 12=1 3=1 13=1 4=1 14=1 15=1 16=1 5=1 6=55296
Split            splitncnn_60             1 2 /gblocks/gblocks.15/fc2/Conv_output_0 /gblocks/gblocks.15/fc2/Conv_output_0_splitncnn_0 /gblocks/gblocks.15/fc2/Conv_output_0_splitncnn_1
Softplus         /gblocks/gblocks.15/act_1/Softplus 1 1 /gblocks/gblocks.15/fc2/Conv_output_0_splitncnn_1 /gblocks/gblocks.15/act_1/Softplus_output_0
UnaryOp          /gblocks/gblocks.15/act_1/Tanh 1 1 /gblocks/gblocks.15/act_1/Softplus_output_0 /gblocks/gblocks.15/act_1/Tanh_output_0 0=16
BinaryOp         /gblocks/gblocks.15/act_1/Mul 2 1 /gblocks/gblocks.15/fc2/Conv_output_0_splitncnn_0 /gblocks/gblocks.15/act_1/Tanh_output_0 /gblocks/gblocks.15/act_1/Mul_output_0 0=2
BinaryOp         /gblocks/gblocks.15/Sub  1 1 /gblocks/gblocks.14/Add_output_0_splitncnn_0 /gblocks/gblocks.15/Sub_output_0 0=1 1=1 2=5.000000e-01
BinaryOp         /gblocks/gblocks.15/Add  2 1 /gblocks/gblocks.15/act_1/Mul_output_0 /gblocks/gblocks.15/Sub_output_0 /gblocks/gblocks.15/Add_output_0 0=0
Split            splitncnn_61             1 3 /gblocks/gblocks.15/Add_output_0 /gblocks/gblocks.15/Add_output_0_splitncnn_0 /gblocks/gblocks.15/Add_output_0_splitncnn_1 /gblocks/gblocks.15/Add_output_0_splitncnn_2
Reduction        /gblocks/gblocks.16/norm/ReduceMean 1 1 /gblocks/gblocks.15/Add_output_0_splitncnn_2 /gblocks/gblocks.16/norm/ReduceMean_output_0 0=3 1=0 -23303=1,0 4=1 5=1
BinaryOp         /gblocks/gblocks.16/norm/Sub 2 1 /gblocks/gblocks.15/Add_output_0_splitncnn_1 /gblocks/gblocks.16/norm/ReduceMean_output_0 /gblocks/gblocks.16/norm/Sub_output_0 0=1
Split            splitncnn_62             1 2 /gblocks/gblocks.16/norm/Sub_output_0 /gblocks/gblocks.16/norm/Sub_output_0_splitncnn_0 /gblocks/gblocks.16/norm/Sub_output_0_splitncnn_1
BinaryOp         /gblocks/gblocks.16/norm/Pow 1 1 /gblocks/gblocks.16/norm/Sub_output_0_splitncnn_1 /gblocks/gblocks.16/norm/Pow_output_0 0=6 1=1 2=2.000000e+00
Reduction        /gblocks/gblocks.16/norm/ReduceMean_1 1 1 /gblocks/gblocks.16/norm/Pow_output_0 /gblocks/gblocks.16/norm/ReduceMean_1_output_0 0=3 1=0 -23303=1,0 4=1 5=1
BinaryOp         /gblocks/gblocks.16/norm/Add 1 1 /gblocks/gblocks.16/norm/ReduceMean_1_output_0 /gblocks/gblocks.16/norm/Add_output_0 0=0 1=1 2=1.000000e-06
UnaryOp          /gblocks/gblocks.16/norm/Sqrt 1 1 /gblocks/gblocks.16/norm/Add_output_0 /gblocks/gblocks.16/norm/Sqrt_output_0 0=5
BinaryOp         /gblocks/gblocks.16/norm/Div 2 1 /gblocks/gblocks.16/norm/Sub_output_0_splitncnn_0 /gblocks/gblocks.16/norm/Sqrt_output_0 /gblocks/gblocks.16/norm/Div_output_0 0=3
ExpandDims       /gblocks/gblocks.16/norm/Unsqueeze 2 1 gblocks.16.norm.weight /gblocks/gblocks.16/norm/Constant_2_output_0 /gblocks/gblocks.16/norm/Unsqueeze_output_0 -23303=0
ExpandDims       /gblocks/gblocks.16/norm/Unsqueeze_1 2 1 /gblocks/gblocks.16/norm/Unsqueeze_output_0 /gblocks/gblocks.16/norm/Constant_3_output_0 /gblocks/gblocks.16/norm/Unsqueeze_1_output_0 -23303=0
BinaryOp         /gblocks/gblocks.16/norm/Mul 2 1 /gblocks/gblocks.16/norm/Unsqueeze_1_output_0 /gblocks/gblocks.16/norm/Div_output_0 /gblocks/gblocks.16/norm/Mul_output_0 0=2
ExpandDims       /gblocks/gblocks.16/norm/Unsqueeze_2 2 1 gblocks.16.norm.bias /gblocks/gblocks.16/norm/Constant_4_output_0 /gblocks/gblocks.16/norm/Unsqueeze_2_output_0 -23303=0
ExpandDims       /gblocks/gblocks.16/norm/Unsqueeze_3 2 1 /gblocks/gblocks.16/norm/Unsqueeze_2_output_0 /gblocks/gblocks.16/norm/Constant_5_output_0 /gblocks/gblocks.16/norm/Unsqueeze_3_output_0 -23303=0
BinaryOp         /gblocks/gblocks.16/norm/Add_1 2 1 /gblocks/gblocks.16/norm/Mul_output_0 /gblocks/gblocks.16/norm/Unsqueeze_3_output_0 /gblocks/gblocks.16/norm/Add_1_output_0 0=0
Convolution      /gblocks/gblocks.16/fc1/Conv 1 1 /gblocks/gblocks.16/norm/Add_1_output_0 /gblocks/gblocks.16/fc1/Conv_output_0 0=192 1=3 11=3 2=1 12=1 3=1 13=1 4=1 14=1 15=1 16=1 5=1 6=110592
Slice            /gblocks/gblocks.16/Split 2 3 /gblocks/gblocks.16/fc1/Conv_output_0 onnx::Split_230_splitncnn_8 /gblocks/gblocks.16/Split_output_0 /gblocks/gblocks.16/Split_output_1 /gblocks/gblocks.16/Split_output_2 -23300=3,-233,-233,-233 1=0
Split            splitncnn_63             1 2 /gblocks/gblocks.16/Split_output_0 /gblocks/gblocks.16/Split_output_0_splitncnn_0 /gblocks/gblocks.16/Split_output_0_splitncnn_1
ConvolutionDepthWise /gblocks/gblocks.16/conv/Conv 1 1 /gblocks/gblocks.16/Split_output_2 /gblocks/gblocks.16/conv/Conv_output_0 0=64 1=7 11=7 2=1 12=1 3=1 13=1 4=3 14=3 15=3 16=3 5=1 6=3136 7=64
Softplus         /gblocks/gblocks.16/act/Softplus 1 1 /gblocks/gblocks.16/Split_output_0_splitncnn_1 /gblocks/gblocks.16/act/Softplus_output_0
UnaryOp          /gblocks/gblocks.16/act/Tanh 1 1 /gblocks/gblocks.16/act/Softplus_output_0 /gblocks/gblocks.16/act/Tanh_output_0 0=16
BinaryOp         /gblocks/gblocks.16/act/Mul 2 1 /gblocks/gblocks.16/Split_output_0_splitncnn_0 /gblocks/gblocks.16/act/Tanh_output_0 /gblocks/gblocks.16/act/Mul_output_0 0=2
Concat           /gblocks/gblocks.16/Concat 2 1 /gblocks/gblocks.16/Split_output_1 /gblocks/gblocks.16/conv/Conv_output_0 /gblocks/gblocks.16/Concat_output_0 0=0
BinaryOp         /gblocks/gblocks.16/Mul  2 1 /gblocks/gblocks.16/act/Mul_output_0 /gblocks/gblocks.16/Concat_output_0 /gblocks/gblocks.16/Mul_output_0 0=2
Convolution      /gblocks/gblocks.16/fc2/Conv 1 1 /gblocks/gblocks.16/Mul_output_0 /gblocks/gblocks.16/fc2/Conv_output_0 0=64 1=3 11=3 2=1 12=1 3=1 13=1 4=1 14=1 15=1 16=1 5=1 6=55296
Split            splitncnn_64             1 2 /gblocks/gblocks.16/fc2/Conv_output_0 /gblocks/gblocks.16/fc2/Conv_output_0_splitncnn_0 /gblocks/gblocks.16/fc2/Conv_output_0_splitncnn_1
Softplus         /gblocks/gblocks.16/act_1/Softplus 1 1 /gblocks/gblocks.16/fc2/Conv_output_0_splitncnn_1 /gblocks/gblocks.16/act_1/Softplus_output_0
UnaryOp          /gblocks/gblocks.16/act_1/Tanh 1 1 /gblocks/gblocks.16/act_1/Softplus_output_0 /gblocks/gblocks.16/act_1/Tanh_output_0 0=16
BinaryOp         /gblocks/gblocks.16/act_1/Mul 2 1 /gblocks/gblocks.16/fc2/Conv_output_0_splitncnn_0 /gblocks/gblocks.16/act_1/Tanh_output_0 /gblocks/gblocks.16/act_1/Mul_output_0 0=2
BinaryOp         /gblocks/gblocks.16/Sub  1 1 /gblocks/gblocks.15/Add_output_0_splitncnn_0 /gblocks/gblocks.16/Sub_output_0 0=1 1=1 2=5.000000e-01
BinaryOp         /gblocks/gblocks.16/Add  2 1 /gblocks/gblocks.16/act_1/Mul_output_0 /gblocks/gblocks.16/Sub_output_0 /gblocks/gblocks.16/Add_output_0 0=0
Split            splitncnn_65             1 3 /gblocks/gblocks.16/Add_output_0 /gblocks/gblocks.16/Add_output_0_splitncnn_0 /gblocks/gblocks.16/Add_output_0_splitncnn_1 /gblocks/gblocks.16/Add_output_0_splitncnn_2
Reduction        /gblocks/gblocks.17/norm/ReduceMean 1 1 /gblocks/gblocks.16/Add_output_0_splitncnn_2 /gblocks/gblocks.17/norm/ReduceMean_output_0 0=3 1=0 -23303=1,0 4=1 5=1
BinaryOp         /gblocks/gblocks.17/norm/Sub 2 1 /gblocks/gblocks.16/Add_output_0_splitncnn_1 /gblocks/gblocks.17/norm/ReduceMean_output_0 /gblocks/gblocks.17/norm/Sub_output_0 0=1
Split            splitncnn_66             1 2 /gblocks/gblocks.17/norm/Sub_output_0 /gblocks/gblocks.17/norm/Sub_output_0_splitncnn_0 /gblocks/gblocks.17/norm/Sub_output_0_splitncnn_1
BinaryOp         /gblocks/gblocks.17/norm/Pow 1 1 /gblocks/gblocks.17/norm/Sub_output_0_splitncnn_1 /gblocks/gblocks.17/norm/Pow_output_0 0=6 1=1 2=2.000000e+00
Reduction        /gblocks/gblocks.17/norm/ReduceMean_1 1 1 /gblocks/gblocks.17/norm/Pow_output_0 /gblocks/gblocks.17/norm/ReduceMean_1_output_0 0=3 1=0 -23303=1,0 4=1 5=1
BinaryOp         /gblocks/gblocks.17/norm/Add 1 1 /gblocks/gblocks.17/norm/ReduceMean_1_output_0 /gblocks/gblocks.17/norm/Add_output_0 0=0 1=1 2=1.000000e-06
UnaryOp          /gblocks/gblocks.17/norm/Sqrt 1 1 /gblocks/gblocks.17/norm/Add_output_0 /gblocks/gblocks.17/norm/Sqrt_output_0 0=5
BinaryOp         /gblocks/gblocks.17/norm/Div 2 1 /gblocks/gblocks.17/norm/Sub_output_0_splitncnn_0 /gblocks/gblocks.17/norm/Sqrt_output_0 /gblocks/gblocks.17/norm/Div_output_0 0=3
ExpandDims       /gblocks/gblocks.17/norm/Unsqueeze 2 1 gblocks.17.norm.weight /gblocks/gblocks.17/norm/Constant_2_output_0 /gblocks/gblocks.17/norm/Unsqueeze_output_0 -23303=0
ExpandDims       /gblocks/gblocks.17/norm/Unsqueeze_1 2 1 /gblocks/gblocks.17/norm/Unsqueeze_output_0 /gblocks/gblocks.17/norm/Constant_3_output_0 /gblocks/gblocks.17/norm/Unsqueeze_1_output_0 -23303=0
BinaryOp         /gblocks/gblocks.17/norm/Mul 2 1 /gblocks/gblocks.17/norm/Unsqueeze_1_output_0 /gblocks/gblocks.17/norm/Div_output_0 /gblocks/gblocks.17/norm/Mul_output_0 0=2
ExpandDims       /gblocks/gblocks.17/norm/Unsqueeze_2 2 1 gblocks.17.norm.bias /gblocks/gblocks.17/norm/Constant_4_output_0 /gblocks/gblocks.17/norm/Unsqueeze_2_output_0 -23303=0
ExpandDims       /gblocks/gblocks.17/norm/Unsqueeze_3 2 1 /gblocks/gblocks.17/norm/Unsqueeze_2_output_0 /gblocks/gblocks.17/norm/Constant_5_output_0 /gblocks/gblocks.17/norm/Unsqueeze_3_output_0 -23303=0
BinaryOp         /gblocks/gblocks.17/norm/Add_1 2 1 /gblocks/gblocks.17/norm/Mul_output_0 /gblocks/gblocks.17/norm/Unsqueeze_3_output_0 /gblocks/gblocks.17/norm/Add_1_output_0 0=0
Convolution      /gblocks/gblocks.17/fc1/Conv 1 1 /gblocks/gblocks.17/norm/Add_1_output_0 /gblocks/gblocks.17/fc1/Conv_output_0 0=192 1=3 11=3 2=1 12=1 3=1 13=1 4=1 14=1 15=1 16=1 5=1 6=110592
Slice            /gblocks/gblocks.17/Split 2 3 /gblocks/gblocks.17/fc1/Conv_output_0 onnx::Split_230_splitncnn_7 /gblocks/gblocks.17/Split_output_0 /gblocks/gblocks.17/Split_output_1 /gblocks/gblocks.17/Split_output_2 -23300=3,-233,-233,-233 1=0
Split            splitncnn_67             1 2 /gblocks/gblocks.17/Split_output_0 /gblocks/gblocks.17/Split_output_0_splitncnn_0 /gblocks/gblocks.17/Split_output_0_splitncnn_1
ConvolutionDepthWise /gblocks/gblocks.17/conv/Conv 1 1 /gblocks/gblocks.17/Split_output_2 /gblocks/gblocks.17/conv/Conv_output_0 0=64 1=7 11=7 2=1 12=1 3=1 13=1 4=3 14=3 15=3 16=3 5=1 6=3136 7=64
Softplus         /gblocks/gblocks.17/act/Softplus 1 1 /gblocks/gblocks.17/Split_output_0_splitncnn_1 /gblocks/gblocks.17/act/Softplus_output_0
UnaryOp          /gblocks/gblocks.17/act/Tanh 1 1 /gblocks/gblocks.17/act/Softplus_output_0 /gblocks/gblocks.17/act/Tanh_output_0 0=16
BinaryOp         /gblocks/gblocks.17/act/Mul 2 1 /gblocks/gblocks.17/Split_output_0_splitncnn_0 /gblocks/gblocks.17/act/Tanh_output_0 /gblocks/gblocks.17/act/Mul_output_0 0=2
Concat           /gblocks/gblocks.17/Concat 2 1 /gblocks/gblocks.17/Split_output_1 /gblocks/gblocks.17/conv/Conv_output_0 /gblocks/gblocks.17/Concat_output_0 0=0
BinaryOp         /gblocks/gblocks.17/Mul  2 1 /gblocks/gblocks.17/act/Mul_output_0 /gblocks/gblocks.17/Concat_output_0 /gblocks/gblocks.17/Mul_output_0 0=2
Convolution      /gblocks/gblocks.17/fc2/Conv 1 1 /gblocks/gblocks.17/Mul_output_0 /gblocks/gblocks.17/fc2/Conv_output_0 0=64 1=3 11=3 2=1 12=1 3=1 13=1 4=1 14=1 15=1 16=1 5=1 6=55296
Split            splitncnn_68             1 2 /gblocks/gblocks.17/fc2/Conv_output_0 /gblocks/gblocks.17/fc2/Conv_output_0_splitncnn_0 /gblocks/gblocks.17/fc2/Conv_output_0_splitncnn_1
Softplus         /gblocks/gblocks.17/act_1/Softplus 1 1 /gblocks/gblocks.17/fc2/Conv_output_0_splitncnn_1 /gblocks/gblocks.17/act_1/Softplus_output_0
UnaryOp          /gblocks/gblocks.17/act_1/Tanh 1 1 /gblocks/gblocks.17/act_1/Softplus_output_0 /gblocks/gblocks.17/act_1/Tanh_output_0 0=16
BinaryOp         /gblocks/gblocks.17/act_1/Mul 2 1 /gblocks/gblocks.17/fc2/Conv_output_0_splitncnn_0 /gblocks/gblocks.17/act_1/Tanh_output_0 /gblocks/gblocks.17/act_1/Mul_output_0 0=2
BinaryOp         /gblocks/gblocks.17/Sub  1 1 /gblocks/gblocks.16/Add_output_0_splitncnn_0 /gblocks/gblocks.17/Sub_output_0 0=1 1=1 2=5.000000e-01
BinaryOp         /gblocks/gblocks.17/Add  2 1 /gblocks/gblocks.17/act_1/Mul_output_0 /gblocks/gblocks.17/Sub_output_0 /gblocks/gblocks.17/Add_output_0 0=0
Split            splitncnn_69             1 3 /gblocks/gblocks.17/Add_output_0 /gblocks/gblocks.17/Add_output_0_splitncnn_0 /gblocks/gblocks.17/Add_output_0_splitncnn_1 /gblocks/gblocks.17/Add_output_0_splitncnn_2
Reduction        /gblocks/gblocks.18/norm/ReduceMean 1 1 /gblocks/gblocks.17/Add_output_0_splitncnn_2 /gblocks/gblocks.18/norm/ReduceMean_output_0 0=3 1=0 -23303=1,0 4=1 5=1
BinaryOp         /gblocks/gblocks.18/norm/Sub 2 1 /gblocks/gblocks.17/Add_output_0_splitncnn_1 /gblocks/gblocks.18/norm/ReduceMean_output_0 /gblocks/gblocks.18/norm/Sub_output_0 0=1
Split            splitncnn_70             1 2 /gblocks/gblocks.18/norm/Sub_output_0 /gblocks/gblocks.18/norm/Sub_output_0_splitncnn_0 /gblocks/gblocks.18/norm/Sub_output_0_splitncnn_1
BinaryOp         /gblocks/gblocks.18/norm/Pow 1 1 /gblocks/gblocks.18/norm/Sub_output_0_splitncnn_1 /gblocks/gblocks.18/norm/Pow_output_0 0=6 1=1 2=2.000000e+00
Reduction        /gblocks/gblocks.18/norm/ReduceMean_1 1 1 /gblocks/gblocks.18/norm/Pow_output_0 /gblocks/gblocks.18/norm/ReduceMean_1_output_0 0=3 1=0 -23303=1,0 4=1 5=1
BinaryOp         /gblocks/gblocks.18/norm/Add 1 1 /gblocks/gblocks.18/norm/ReduceMean_1_output_0 /gblocks/gblocks.18/norm/Add_output_0 0=0 1=1 2=1.000000e-06
UnaryOp          /gblocks/gblocks.18/norm/Sqrt 1 1 /gblocks/gblocks.18/norm/Add_output_0 /gblocks/gblocks.18/norm/Sqrt_output_0 0=5
BinaryOp         /gblocks/gblocks.18/norm/Div 2 1 /gblocks/gblocks.18/norm/Sub_output_0_splitncnn_0 /gblocks/gblocks.18/norm/Sqrt_output_0 /gblocks/gblocks.18/norm/Div_output_0 0=3
ExpandDims       /gblocks/gblocks.18/norm/Unsqueeze 2 1 gblocks.18.norm.weight /gblocks/gblocks.18/norm/Constant_2_output_0 /gblocks/gblocks.18/norm/Unsqueeze_output_0 -23303=0
ExpandDims       /gblocks/gblocks.18/norm/Unsqueeze_1 2 1 /gblocks/gblocks.18/norm/Unsqueeze_output_0 /gblocks/gblocks.18/norm/Constant_3_output_0 /gblocks/gblocks.18/norm/Unsqueeze_1_output_0 -23303=0
BinaryOp         /gblocks/gblocks.18/norm/Mul 2 1 /gblocks/gblocks.18/norm/Unsqueeze_1_output_0 /gblocks/gblocks.18/norm/Div_output_0 /gblocks/gblocks.18/norm/Mul_output_0 0=2
ExpandDims       /gblocks/gblocks.18/norm/Unsqueeze_2 2 1 gblocks.18.norm.bias /gblocks/gblocks.18/norm/Constant_4_output_0 /gblocks/gblocks.18/norm/Unsqueeze_2_output_0 -23303=0
ExpandDims       /gblocks/gblocks.18/norm/Unsqueeze_3 2 1 /gblocks/gblocks.18/norm/Unsqueeze_2_output_0 /gblocks/gblocks.18/norm/Constant_5_output_0 /gblocks/gblocks.18/norm/Unsqueeze_3_output_0 -23303=0
BinaryOp         /gblocks/gblocks.18/norm/Add_1 2 1 /gblocks/gblocks.18/norm/Mul_output_0 /gblocks/gblocks.18/norm/Unsqueeze_3_output_0 /gblocks/gblocks.18/norm/Add_1_output_0 0=0
Convolution      /gblocks/gblocks.18/fc1/Conv 1 1 /gblocks/gblocks.18/norm/Add_1_output_0 /gblocks/gblocks.18/fc1/Conv_output_0 0=192 1=3 11=3 2=1 12=1 3=1 13=1 4=1 14=1 15=1 16=1 5=1 6=110592
Slice            /gblocks/gblocks.18/Split 2 3 /gblocks/gblocks.18/fc1/Conv_output_0 onnx::Split_230_splitncnn_6 /gblocks/gblocks.18/Split_output_0 /gblocks/gblocks.18/Split_output_1 /gblocks/gblocks.18/Split_output_2 -23300=3,-233,-233,-233 1=0
Split            splitncnn_71             1 2 /gblocks/gblocks.18/Split_output_0 /gblocks/gblocks.18/Split_output_0_splitncnn_0 /gblocks/gblocks.18/Split_output_0_splitncnn_1
ConvolutionDepthWise /gblocks/gblocks.18/conv/Conv 1 1 /gblocks/gblocks.18/Split_output_2 /gblocks/gblocks.18/conv/Conv_output_0 0=64 1=7 11=7 2=1 12=1 3=1 13=1 4=3 14=3 15=3 16=3 5=1 6=3136 7=64
Softplus         /gblocks/gblocks.18/act/Softplus 1 1 /gblocks/gblocks.18/Split_output_0_splitncnn_1 /gblocks/gblocks.18/act/Softplus_output_0
UnaryOp          /gblocks/gblocks.18/act/Tanh 1 1 /gblocks/gblocks.18/act/Softplus_output_0 /gblocks/gblocks.18/act/Tanh_output_0 0=16
BinaryOp         /gblocks/gblocks.18/act/Mul 2 1 /gblocks/gblocks.18/Split_output_0_splitncnn_0 /gblocks/gblocks.18/act/Tanh_output_0 /gblocks/gblocks.18/act/Mul_output_0 0=2
Concat           /gblocks/gblocks.18/Concat 2 1 /gblocks/gblocks.18/Split_output_1 /gblocks/gblocks.18/conv/Conv_output_0 /gblocks/gblocks.18/Concat_output_0 0=0
BinaryOp         /gblocks/gblocks.18/Mul  2 1 /gblocks/gblocks.18/act/Mul_output_0 /gblocks/gblocks.18/Concat_output_0 /gblocks/gblocks.18/Mul_output_0 0=2
Convolution      /gblocks/gblocks.18/fc2/Conv 1 1 /gblocks/gblocks.18/Mul_output_0 /gblocks/gblocks.18/fc2/Conv_output_0 0=64 1=3 11=3 2=1 12=1 3=1 13=1 4=1 14=1 15=1 16=1 5=1 6=55296
Split            splitncnn_72             1 2 /gblocks/gblocks.18/fc2/Conv_output_0 /gblocks/gblocks.18/fc2/Conv_output_0_splitncnn_0 /gblocks/gblocks.18/fc2/Conv_output_0_splitncnn_1
Softplus         /gblocks/gblocks.18/act_1/Softplus 1 1 /gblocks/gblocks.18/fc2/Conv_output_0_splitncnn_1 /gblocks/gblocks.18/act_1/Softplus_output_0
UnaryOp          /gblocks/gblocks.18/act_1/Tanh 1 1 /gblocks/gblocks.18/act_1/Softplus_output_0 /gblocks/gblocks.18/act_1/Tanh_output_0 0=16
BinaryOp         /gblocks/gblocks.18/act_1/Mul 2 1 /gblocks/gblocks.18/fc2/Conv_output_0_splitncnn_0 /gblocks/gblocks.18/act_1/Tanh_output_0 /gblocks/gblocks.18/act_1/Mul_output_0 0=2
BinaryOp         /gblocks/gblocks.18/Sub  1 1 /gblocks/gblocks.17/Add_output_0_splitncnn_0 /gblocks/gblocks.18/Sub_output_0 0=1 1=1 2=5.000000e-01
BinaryOp         /gblocks/gblocks.18/Add  2 1 /gblocks/gblocks.18/act_1/Mul_output_0 /gblocks/gblocks.18/Sub_output_0 /gblocks/gblocks.18/Add_output_0 0=0
Split            splitncnn_73             1 3 /gblocks/gblocks.18/Add_output_0 /gblocks/gblocks.18/Add_output_0_splitncnn_0 /gblocks/gblocks.18/Add_output_0_splitncnn_1 /gblocks/gblocks.18/Add_output_0_splitncnn_2
Reduction        /gblocks/gblocks.19/norm/ReduceMean 1 1 /gblocks/gblocks.18/Add_output_0_splitncnn_2 /gblocks/gblocks.19/norm/ReduceMean_output_0 0=3 1=0 -23303=1,0 4=1 5=1
BinaryOp         /gblocks/gblocks.19/norm/Sub 2 1 /gblocks/gblocks.18/Add_output_0_splitncnn_1 /gblocks/gblocks.19/norm/ReduceMean_output_0 /gblocks/gblocks.19/norm/Sub_output_0 0=1
Split            splitncnn_74             1 2 /gblocks/gblocks.19/norm/Sub_output_0 /gblocks/gblocks.19/norm/Sub_output_0_splitncnn_0 /gblocks/gblocks.19/norm/Sub_output_0_splitncnn_1
BinaryOp         /gblocks/gblocks.19/norm/Pow 1 1 /gblocks/gblocks.19/norm/Sub_output_0_splitncnn_1 /gblocks/gblocks.19/norm/Pow_output_0 0=6 1=1 2=2.000000e+00
Reduction        /gblocks/gblocks.19/norm/ReduceMean_1 1 1 /gblocks/gblocks.19/norm/Pow_output_0 /gblocks/gblocks.19/norm/ReduceMean_1_output_0 0=3 1=0 -23303=1,0 4=1 5=1
BinaryOp         /gblocks/gblocks.19/norm/Add 1 1 /gblocks/gblocks.19/norm/ReduceMean_1_output_0 /gblocks/gblocks.19/norm/Add_output_0 0=0 1=1 2=1.000000e-06
UnaryOp          /gblocks/gblocks.19/norm/Sqrt 1 1 /gblocks/gblocks.19/norm/Add_output_0 /gblocks/gblocks.19/norm/Sqrt_output_0 0=5
BinaryOp         /gblocks/gblocks.19/norm/Div 2 1 /gblocks/gblocks.19/norm/Sub_output_0_splitncnn_0 /gblocks/gblocks.19/norm/Sqrt_output_0 /gblocks/gblocks.19/norm/Div_output_0 0=3
ExpandDims       /gblocks/gblocks.19/norm/Unsqueeze 2 1 gblocks.19.norm.weight /gblocks/gblocks.19/norm/Constant_2_output_0 /gblocks/gblocks.19/norm/Unsqueeze_output_0 -23303=0
ExpandDims       /gblocks/gblocks.19/norm/Unsqueeze_1 2 1 /gblocks/gblocks.19/norm/Unsqueeze_output_0 /gblocks/gblocks.19/norm/Constant_3_output_0 /gblocks/gblocks.19/norm/Unsqueeze_1_output_0 -23303=0
BinaryOp         /gblocks/gblocks.19/norm/Mul 2 1 /gblocks/gblocks.19/norm/Unsqueeze_1_output_0 /gblocks/gblocks.19/norm/Div_output_0 /gblocks/gblocks.19/norm/Mul_output_0 0=2
ExpandDims       /gblocks/gblocks.19/norm/Unsqueeze_2 2 1 gblocks.19.norm.bias /gblocks/gblocks.19/norm/Constant_4_output_0 /gblocks/gblocks.19/norm/Unsqueeze_2_output_0 -23303=0
ExpandDims       /gblocks/gblocks.19/norm/Unsqueeze_3 2 1 /gblocks/gblocks.19/norm/Unsqueeze_2_output_0 /gblocks/gblocks.19/norm/Constant_5_output_0 /gblocks/gblocks.19/norm/Unsqueeze_3_output_0 -23303=0
BinaryOp         /gblocks/gblocks.19/norm/Add_1 2 1 /gblocks/gblocks.19/norm/Mul_output_0 /gblocks/gblocks.19/norm/Unsqueeze_3_output_0 /gblocks/gblocks.19/norm/Add_1_output_0 0=0
Convolution      /gblocks/gblocks.19/fc1/Conv 1 1 /gblocks/gblocks.19/norm/Add_1_output_0 /gblocks/gblocks.19/fc1/Conv_output_0 0=192 1=3 11=3 2=1 12=1 3=1 13=1 4=1 14=1 15=1 16=1 5=1 6=110592
Slice            /gblocks/gblocks.19/Split 2 3 /gblocks/gblocks.19/fc1/Conv_output_0 onnx::Split_230_splitncnn_5 /gblocks/gblocks.19/Split_output_0 /gblocks/gblocks.19/Split_output_1 /gblocks/gblocks.19/Split_output_2 -23300=3,-233,-233,-233 1=0
Split            splitncnn_75             1 2 /gblocks/gblocks.19/Split_output_0 /gblocks/gblocks.19/Split_output_0_splitncnn_0 /gblocks/gblocks.19/Split_output_0_splitncnn_1
ConvolutionDepthWise /gblocks/gblocks.19/conv/Conv 1 1 /gblocks/gblocks.19/Split_output_2 /gblocks/gblocks.19/conv/Conv_output_0 0=64 1=7 11=7 2=1 12=1 3=1 13=1 4=3 14=3 15=3 16=3 5=1 6=3136 7=64
Softplus         /gblocks/gblocks.19/act/Softplus 1 1 /gblocks/gblocks.19/Split_output_0_splitncnn_1 /gblocks/gblocks.19/act/Softplus_output_0
UnaryOp          /gblocks/gblocks.19/act/Tanh 1 1 /gblocks/gblocks.19/act/Softplus_output_0 /gblocks/gblocks.19/act/Tanh_output_0 0=16
BinaryOp         /gblocks/gblocks.19/act/Mul 2 1 /gblocks/gblocks.19/Split_output_0_splitncnn_0 /gblocks/gblocks.19/act/Tanh_output_0 /gblocks/gblocks.19/act/Mul_output_0 0=2
Concat           /gblocks/gblocks.19/Concat 2 1 /gblocks/gblocks.19/Split_output_1 /gblocks/gblocks.19/conv/Conv_output_0 /gblocks/gblocks.19/Concat_output_0 0=0
BinaryOp         /gblocks/gblocks.19/Mul  2 1 /gblocks/gblocks.19/act/Mul_output_0 /gblocks/gblocks.19/Concat_output_0 /gblocks/gblocks.19/Mul_output_0 0=2
Convolution      /gblocks/gblocks.19/fc2/Conv 1 1 /gblocks/gblocks.19/Mul_output_0 /gblocks/gblocks.19/fc2/Conv_output_0 0=64 1=3 11=3 2=1 12=1 3=1 13=1 4=1 14=1 15=1 16=1 5=1 6=55296
Split            splitncnn_76             1 2 /gblocks/gblocks.19/fc2/Conv_output_0 /gblocks/gblocks.19/fc2/Conv_output_0_splitncnn_0 /gblocks/gblocks.19/fc2/Conv_output_0_splitncnn_1
Softplus         /gblocks/gblocks.19/act_1/Softplus 1 1 /gblocks/gblocks.19/fc2/Conv_output_0_splitncnn_1 /gblocks/gblocks.19/act_1/Softplus_output_0
UnaryOp          /gblocks/gblocks.19/act_1/Tanh 1 1 /gblocks/gblocks.19/act_1/Softplus_output_0 /gblocks/gblocks.19/act_1/Tanh_output_0 0=16
BinaryOp         /gblocks/gblocks.19/act_1/Mul 2 1 /gblocks/gblocks.19/fc2/Conv_output_0_splitncnn_0 /gblocks/gblocks.19/act_1/Tanh_output_0 /gblocks/gblocks.19/act_1/Mul_output_0 0=2
BinaryOp         /gblocks/gblocks.19/Sub  1 1 /gblocks/gblocks.18/Add_output_0_splitncnn_0 /gblocks/gblocks.19/Sub_output_0 0=1 1=1 2=5.000000e-01
BinaryOp         /gblocks/gblocks.19/Add  2 1 /gblocks/gblocks.19/act_1/Mul_output_0 /gblocks/gblocks.19/Sub_output_0 /gblocks/gblocks.19/Add_output_0 0=0
Split            splitncnn_77             1 3 /gblocks/gblocks.19/Add_output_0 /gblocks/gblocks.19/Add_output_0_splitncnn_0 /gblocks/gblocks.19/Add_output_0_splitncnn_1 /gblocks/gblocks.19/Add_output_0_splitncnn_2
Reduction        /gblocks/gblocks.20/norm/ReduceMean 1 1 /gblocks/gblocks.19/Add_output_0_splitncnn_2 /gblocks/gblocks.20/norm/ReduceMean_output_0 0=3 1=0 -23303=1,0 4=1 5=1
BinaryOp         /gblocks/gblocks.20/norm/Sub 2 1 /gblocks/gblocks.19/Add_output_0_splitncnn_1 /gblocks/gblocks.20/norm/ReduceMean_output_0 /gblocks/gblocks.20/norm/Sub_output_0 0=1
Split            splitncnn_78             1 2 /gblocks/gblocks.20/norm/Sub_output_0 /gblocks/gblocks.20/norm/Sub_output_0_splitncnn_0 /gblocks/gblocks.20/norm/Sub_output_0_splitncnn_1
BinaryOp         /gblocks/gblocks.20/norm/Pow 1 1 /gblocks/gblocks.20/norm/Sub_output_0_splitncnn_1 /gblocks/gblocks.20/norm/Pow_output_0 0=6 1=1 2=2.000000e+00
Reduction        /gblocks/gblocks.20/norm/ReduceMean_1 1 1 /gblocks/gblocks.20/norm/Pow_output_0 /gblocks/gblocks.20/norm/ReduceMean_1_output_0 0=3 1=0 -23303=1,0 4=1 5=1
BinaryOp         /gblocks/gblocks.20/norm/Add 1 1 /gblocks/gblocks.20/norm/ReduceMean_1_output_0 /gblocks/gblocks.20/norm/Add_output_0 0=0 1=1 2=1.000000e-06
UnaryOp          /gblocks/gblocks.20/norm/Sqrt 1 1 /gblocks/gblocks.20/norm/Add_output_0 /gblocks/gblocks.20/norm/Sqrt_output_0 0=5
BinaryOp         /gblocks/gblocks.20/norm/Div 2 1 /gblocks/gblocks.20/norm/Sub_output_0_splitncnn_0 /gblocks/gblocks.20/norm/Sqrt_output_0 /gblocks/gblocks.20/norm/Div_output_0 0=3
ExpandDims       /gblocks/gblocks.20/norm/Unsqueeze 2 1 gblocks.20.norm.weight /gblocks/gblocks.20/norm/Constant_2_output_0 /gblocks/gblocks.20/norm/Unsqueeze_output_0 -23303=0
ExpandDims       /gblocks/gblocks.20/norm/Unsqueeze_1 2 1 /gblocks/gblocks.20/norm/Unsqueeze_output_0 /gblocks/gblocks.20/norm/Constant_3_output_0 /gblocks/gblocks.20/norm/Unsqueeze_1_output_0 -23303=0
BinaryOp         /gblocks/gblocks.20/norm/Mul 2 1 /gblocks/gblocks.20/norm/Unsqueeze_1_output_0 /gblocks/gblocks.20/norm/Div_output_0 /gblocks/gblocks.20/norm/Mul_output_0 0=2
ExpandDims       /gblocks/gblocks.20/norm/Unsqueeze_2 2 1 gblocks.20.norm.bias /gblocks/gblocks.20/norm/Constant_4_output_0 /gblocks/gblocks.20/norm/Unsqueeze_2_output_0 -23303=0
ExpandDims       /gblocks/gblocks.20/norm/Unsqueeze_3 2 1 /gblocks/gblocks.20/norm/Unsqueeze_2_output_0 /gblocks/gblocks.20/norm/Constant_5_output_0 /gblocks/gblocks.20/norm/Unsqueeze_3_output_0 -23303=0
BinaryOp         /gblocks/gblocks.20/norm/Add_1 2 1 /gblocks/gblocks.20/norm/Mul_output_0 /gblocks/gblocks.20/norm/Unsqueeze_3_output_0 /gblocks/gblocks.20/norm/Add_1_output_0 0=0
Convolution      /gblocks/gblocks.20/fc1/Conv 1 1 /gblocks/gblocks.20/norm/Add_1_output_0 /gblocks/gblocks.20/fc1/Conv_output_0 0=192 1=3 11=3 2=1 12=1 3=1 13=1 4=1 14=1 15=1 16=1 5=1 6=110592
Slice            /gblocks/gblocks.20/Split 2 3 /gblocks/gblocks.20/fc1/Conv_output_0 onnx::Split_230_splitncnn_4 /gblocks/gblocks.20/Split_output_0 /gblocks/gblocks.20/Split_output_1 /gblocks/gblocks.20/Split_output_2 -23300=3,-233,-233,-233 1=0
Split            splitncnn_79             1 2 /gblocks/gblocks.20/Split_output_0 /gblocks/gblocks.20/Split_output_0_splitncnn_0 /gblocks/gblocks.20/Split_output_0_splitncnn_1
ConvolutionDepthWise /gblocks/gblocks.20/conv/Conv 1 1 /gblocks/gblocks.20/Split_output_2 /gblocks/gblocks.20/conv/Conv_output_0 0=64 1=7 11=7 2=1 12=1 3=1 13=1 4=3 14=3 15=3 16=3 5=1 6=3136 7=64
Softplus         /gblocks/gblocks.20/act/Softplus 1 1 /gblocks/gblocks.20/Split_output_0_splitncnn_1 /gblocks/gblocks.20/act/Softplus_output_0
UnaryOp          /gblocks/gblocks.20/act/Tanh 1 1 /gblocks/gblocks.20/act/Softplus_output_0 /gblocks/gblocks.20/act/Tanh_output_0 0=16
BinaryOp         /gblocks/gblocks.20/act/Mul 2 1 /gblocks/gblocks.20/Split_output_0_splitncnn_0 /gblocks/gblocks.20/act/Tanh_output_0 /gblocks/gblocks.20/act/Mul_output_0 0=2
Concat           /gblocks/gblocks.20/Concat 2 1 /gblocks/gblocks.20/Split_output_1 /gblocks/gblocks.20/conv/Conv_output_0 /gblocks/gblocks.20/Concat_output_0 0=0
BinaryOp         /gblocks/gblocks.20/Mul  2 1 /gblocks/gblocks.20/act/Mul_output_0 /gblocks/gblocks.20/Concat_output_0 /gblocks/gblocks.20/Mul_output_0 0=2
Convolution      /gblocks/gblocks.20/fc2/Conv 1 1 /gblocks/gblocks.20/Mul_output_0 /gblocks/gblocks.20/fc2/Conv_output_0 0=64 1=3 11=3 2=1 12=1 3=1 13=1 4=1 14=1 15=1 16=1 5=1 6=55296
Split            splitncnn_80             1 2 /gblocks/gblocks.20/fc2/Conv_output_0 /gblocks/gblocks.20/fc2/Conv_output_0_splitncnn_0 /gblocks/gblocks.20/fc2/Conv_output_0_splitncnn_1
Softplus         /gblocks/gblocks.20/act_1/Softplus 1 1 /gblocks/gblocks.20/fc2/Conv_output_0_splitncnn_1 /gblocks/gblocks.20/act_1/Softplus_output_0
UnaryOp          /gblocks/gblocks.20/act_1/Tanh 1 1 /gblocks/gblocks.20/act_1/Softplus_output_0 /gblocks/gblocks.20/act_1/Tanh_output_0 0=16
BinaryOp         /gblocks/gblocks.20/act_1/Mul 2 1 /gblocks/gblocks.20/fc2/Conv_output_0_splitncnn_0 /gblocks/gblocks.20/act_1/Tanh_output_0 /gblocks/gblocks.20/act_1/Mul_output_0 0=2
BinaryOp         /gblocks/gblocks.20/Sub  1 1 /gblocks/gblocks.19/Add_output_0_splitncnn_0 /gblocks/gblocks.20/Sub_output_0 0=1 1=1 2=5.000000e-01
BinaryOp         /gblocks/gblocks.20/Add  2 1 /gblocks/gblocks.20/act_1/Mul_output_0 /gblocks/gblocks.20/Sub_output_0 /gblocks/gblocks.20/Add_output_0 0=0
Split            splitncnn_81             1 3 /gblocks/gblocks.20/Add_output_0 /gblocks/gblocks.20/Add_output_0_splitncnn_0 /gblocks/gblocks.20/Add_output_0_splitncnn_1 /gblocks/gblocks.20/Add_output_0_splitncnn_2
Reduction        /gblocks/gblocks.21/norm/ReduceMean 1 1 /gblocks/gblocks.20/Add_output_0_splitncnn_2 /gblocks/gblocks.21/norm/ReduceMean_output_0 0=3 1=0 -23303=1,0 4=1 5=1
BinaryOp         /gblocks/gblocks.21/norm/Sub 2 1 /gblocks/gblocks.20/Add_output_0_splitncnn_1 /gblocks/gblocks.21/norm/ReduceMean_output_0 /gblocks/gblocks.21/norm/Sub_output_0 0=1
Split            splitncnn_82             1 2 /gblocks/gblocks.21/norm/Sub_output_0 /gblocks/gblocks.21/norm/Sub_output_0_splitncnn_0 /gblocks/gblocks.21/norm/Sub_output_0_splitncnn_1
BinaryOp         /gblocks/gblocks.21/norm/Pow 1 1 /gblocks/gblocks.21/norm/Sub_output_0_splitncnn_1 /gblocks/gblocks.21/norm/Pow_output_0 0=6 1=1 2=2.000000e+00
Reduction        /gblocks/gblocks.21/norm/ReduceMean_1 1 1 /gblocks/gblocks.21/norm/Pow_output_0 /gblocks/gblocks.21/norm/ReduceMean_1_output_0 0=3 1=0 -23303=1,0 4=1 5=1
BinaryOp         /gblocks/gblocks.21/norm/Add 1 1 /gblocks/gblocks.21/norm/ReduceMean_1_output_0 /gblocks/gblocks.21/norm/Add_output_0 0=0 1=1 2=1.000000e-06
UnaryOp          /gblocks/gblocks.21/norm/Sqrt 1 1 /gblocks/gblocks.21/norm/Add_output_0 /gblocks/gblocks.21/norm/Sqrt_output_0 0=5
BinaryOp         /gblocks/gblocks.21/norm/Div 2 1 /gblocks/gblocks.21/norm/Sub_output_0_splitncnn_0 /gblocks/gblocks.21/norm/Sqrt_output_0 /gblocks/gblocks.21/norm/Div_output_0 0=3
ExpandDims       /gblocks/gblocks.21/norm/Unsqueeze 2 1 gblocks.21.norm.weight /gblocks/gblocks.21/norm/Constant_2_output_0 /gblocks/gblocks.21/norm/Unsqueeze_output_0 -23303=0
ExpandDims       /gblocks/gblocks.21/norm/Unsqueeze_1 2 1 /gblocks/gblocks.21/norm/Unsqueeze_output_0 /gblocks/gblocks.21/norm/Constant_3_output_0 /gblocks/gblocks.21/norm/Unsqueeze_1_output_0 -23303=0
BinaryOp         /gblocks/gblocks.21/norm/Mul 2 1 /gblocks/gblocks.21/norm/Unsqueeze_1_output_0 /gblocks/gblocks.21/norm/Div_output_0 /gblocks/gblocks.21/norm/Mul_output_0 0=2
ExpandDims       /gblocks/gblocks.21/norm/Unsqueeze_2 2 1 gblocks.21.norm.bias /gblocks/gblocks.21/norm/Constant_4_output_0 /gblocks/gblocks.21/norm/Unsqueeze_2_output_0 -23303=0
ExpandDims       /gblocks/gblocks.21/norm/Unsqueeze_3 2 1 /gblocks/gblocks.21/norm/Unsqueeze_2_output_0 /gblocks/gblocks.21/norm/Constant_5_output_0 /gblocks/gblocks.21/norm/Unsqueeze_3_output_0 -23303=0
BinaryOp         /gblocks/gblocks.21/norm/Add_1 2 1 /gblocks/gblocks.21/norm/Mul_output_0 /gblocks/gblocks.21/norm/Unsqueeze_3_output_0 /gblocks/gblocks.21/norm/Add_1_output_0 0=0
Convolution      /gblocks/gblocks.21/fc1/Conv 1 1 /gblocks/gblocks.21/norm/Add_1_output_0 /gblocks/gblocks.21/fc1/Conv_output_0 0=192 1=3 11=3 2=1 12=1 3=1 13=1 4=1 14=1 15=1 16=1 5=1 6=110592
Slice            /gblocks/gblocks.21/Split 2 3 /gblocks/gblocks.21/fc1/Conv_output_0 onnx::Split_230_splitncnn_3 /gblocks/gblocks.21/Split_output_0 /gblocks/gblocks.21/Split_output_1 /gblocks/gblocks.21/Split_output_2 -23300=3,-233,-233,-233 1=0
Split            splitncnn_83             1 2 /gblocks/gblocks.21/Split_output_0 /gblocks/gblocks.21/Split_output_0_splitncnn_0 /gblocks/gblocks.21/Split_output_0_splitncnn_1
ConvolutionDepthWise /gblocks/gblocks.21/conv/Conv 1 1 /gblocks/gblocks.21/Split_output_2 /gblocks/gblocks.21/conv/Conv_output_0 0=64 1=7 11=7 2=1 12=1 3=1 13=1 4=3 14=3 15=3 16=3 5=1 6=3136 7=64
Softplus         /gblocks/gblocks.21/act/Softplus 1 1 /gblocks/gblocks.21/Split_output_0_splitncnn_1 /gblocks/gblocks.21/act/Softplus_output_0
UnaryOp          /gblocks/gblocks.21/act/Tanh 1 1 /gblocks/gblocks.21/act/Softplus_output_0 /gblocks/gblocks.21/act/Tanh_output_0 0=16
BinaryOp         /gblocks/gblocks.21/act/Mul 2 1 /gblocks/gblocks.21/Split_output_0_splitncnn_0 /gblocks/gblocks.21/act/Tanh_output_0 /gblocks/gblocks.21/act/Mul_output_0 0=2
Concat           /gblocks/gblocks.21/Concat 2 1 /gblocks/gblocks.21/Split_output_1 /gblocks/gblocks.21/conv/Conv_output_0 /gblocks/gblocks.21/Concat_output_0 0=0
BinaryOp         /gblocks/gblocks.21/Mul  2 1 /gblocks/gblocks.21/act/Mul_output_0 /gblocks/gblocks.21/Concat_output_0 /gblocks/gblocks.21/Mul_output_0 0=2
Convolution      /gblocks/gblocks.21/fc2/Conv 1 1 /gblocks/gblocks.21/Mul_output_0 /gblocks/gblocks.21/fc2/Conv_output_0 0=64 1=3 11=3 2=1 12=1 3=1 13=1 4=1 14=1 15=1 16=1 5=1 6=55296
Split            splitncnn_84             1 2 /gblocks/gblocks.21/fc2/Conv_output_0 /gblocks/gblocks.21/fc2/Conv_output_0_splitncnn_0 /gblocks/gblocks.21/fc2/Conv_output_0_splitncnn_1
Softplus         /gblocks/gblocks.21/act_1/Softplus 1 1 /gblocks/gblocks.21/fc2/Conv_output_0_splitncnn_1 /gblocks/gblocks.21/act_1/Softplus_output_0
UnaryOp          /gblocks/gblocks.21/act_1/Tanh 1 1 /gblocks/gblocks.21/act_1/Softplus_output_0 /gblocks/gblocks.21/act_1/Tanh_output_0 0=16
BinaryOp         /gblocks/gblocks.21/act_1/Mul 2 1 /gblocks/gblocks.21/fc2/Conv_output_0_splitncnn_0 /gblocks/gblocks.21/act_1/Tanh_output_0 /gblocks/gblocks.21/act_1/Mul_output_0 0=2
BinaryOp         /gblocks/gblocks.21/Sub  1 1 /gblocks/gblocks.20/Add_output_0_splitncnn_0 /gblocks/gblocks.21/Sub_output_0 0=1 1=1 2=5.000000e-01
BinaryOp         /gblocks/gblocks.21/Add  2 1 /gblocks/gblocks.21/act_1/Mul_output_0 /gblocks/gblocks.21/Sub_output_0 /gblocks/gblocks.21/Add_output_0 0=0
Split            splitncnn_85             1 3 /gblocks/gblocks.21/Add_output_0 /gblocks/gblocks.21/Add_output_0_splitncnn_0 /gblocks/gblocks.21/Add_output_0_splitncnn_1 /gblocks/gblocks.21/Add_output_0_splitncnn_2
Reduction        /gblocks/gblocks.22/norm/ReduceMean 1 1 /gblocks/gblocks.21/Add_output_0_splitncnn_2 /gblocks/gblocks.22/norm/ReduceMean_output_0 0=3 1=0 -23303=1,0 4=1 5=1
BinaryOp         /gblocks/gblocks.22/norm/Sub 2 1 /gblocks/gblocks.21/Add_output_0_splitncnn_1 /gblocks/gblocks.22/norm/ReduceMean_output_0 /gblocks/gblocks.22/norm/Sub_output_0 0=1
Split            splitncnn_86             1 2 /gblocks/gblocks.22/norm/Sub_output_0 /gblocks/gblocks.22/norm/Sub_output_0_splitncnn_0 /gblocks/gblocks.22/norm/Sub_output_0_splitncnn_1
BinaryOp         /gblocks/gblocks.22/norm/Pow 1 1 /gblocks/gblocks.22/norm/Sub_output_0_splitncnn_1 /gblocks/gblocks.22/norm/Pow_output_0 0=6 1=1 2=2.000000e+00
Reduction        /gblocks/gblocks.22/norm/ReduceMean_1 1 1 /gblocks/gblocks.22/norm/Pow_output_0 /gblocks/gblocks.22/norm/ReduceMean_1_output_0 0=3 1=0 -23303=1,0 4=1 5=1
BinaryOp         /gblocks/gblocks.22/norm/Add 1 1 /gblocks/gblocks.22/norm/ReduceMean_1_output_0 /gblocks/gblocks.22/norm/Add_output_0 0=0 1=1 2=1.000000e-06
UnaryOp          /gblocks/gblocks.22/norm/Sqrt 1 1 /gblocks/gblocks.22/norm/Add_output_0 /gblocks/gblocks.22/norm/Sqrt_output_0 0=5
BinaryOp         /gblocks/gblocks.22/norm/Div 2 1 /gblocks/gblocks.22/norm/Sub_output_0_splitncnn_0 /gblocks/gblocks.22/norm/Sqrt_output_0 /gblocks/gblocks.22/norm/Div_output_0 0=3
ExpandDims       /gblocks/gblocks.22/norm/Unsqueeze 2 1 gblocks.22.norm.weight /gblocks/gblocks.22/norm/Constant_2_output_0 /gblocks/gblocks.22/norm/Unsqueeze_output_0 -23303=0
ExpandDims       /gblocks/gblocks.22/norm/Unsqueeze_1 2 1 /gblocks/gblocks.22/norm/Unsqueeze_output_0 /gblocks/gblocks.22/norm/Constant_3_output_0 /gblocks/gblocks.22/norm/Unsqueeze_1_output_0 -23303=0
BinaryOp         /gblocks/gblocks.22/norm/Mul 2 1 /gblocks/gblocks.22/norm/Unsqueeze_1_output_0 /gblocks/gblocks.22/norm/Div_output_0 /gblocks/gblocks.22/norm/Mul_output_0 0=2
ExpandDims       /gblocks/gblocks.22/norm/Unsqueeze_2 2 1 gblocks.22.norm.bias /gblocks/gblocks.22/norm/Constant_4_output_0 /gblocks/gblocks.22/norm/Unsqueeze_2_output_0 -23303=0
ExpandDims       /gblocks/gblocks.22/norm/Unsqueeze_3 2 1 /gblocks/gblocks.22/norm/Unsqueeze_2_output_0 /gblocks/gblocks.22/norm/Constant_5_output_0 /gblocks/gblocks.22/norm/Unsqueeze_3_output_0 -23303=0
BinaryOp         /gblocks/gblocks.22/norm/Add_1 2 1 /gblocks/gblocks.22/norm/Mul_output_0 /gblocks/gblocks.22/norm/Unsqueeze_3_output_0 /gblocks/gblocks.22/norm/Add_1_output_0 0=0
Convolution      /gblocks/gblocks.22/fc1/Conv 1 1 /gblocks/gblocks.22/norm/Add_1_output_0 /gblocks/gblocks.22/fc1/Conv_output_0 0=192 1=3 11=3 2=1 12=1 3=1 13=1 4=1 14=1 15=1 16=1 5=1 6=110592
Slice            /gblocks/gblocks.22/Split 2 3 /gblocks/gblocks.22/fc1/Conv_output_0 onnx::Split_230_splitncnn_2 /gblocks/gblocks.22/Split_output_0 /gblocks/gblocks.22/Split_output_1 /gblocks/gblocks.22/Split_output_2 -23300=3,-233,-233,-233 1=0
Split            splitncnn_87             1 2 /gblocks/gblocks.22/Split_output_0 /gblocks/gblocks.22/Split_output_0_splitncnn_0 /gblocks/gblocks.22/Split_output_0_splitncnn_1
ConvolutionDepthWise /gblocks/gblocks.22/conv/Conv 1 1 /gblocks/gblocks.22/Split_output_2 /gblocks/gblocks.22/conv/Conv_output_0 0=64 1=7 11=7 2=1 12=1 3=1 13=1 4=3 14=3 15=3 16=3 5=1 6=3136 7=64
Softplus         /gblocks/gblocks.22/act/Softplus 1 1 /gblocks/gblocks.22/Split_output_0_splitncnn_1 /gblocks/gblocks.22/act/Softplus_output_0
UnaryOp          /gblocks/gblocks.22/act/Tanh 1 1 /gblocks/gblocks.22/act/Softplus_output_0 /gblocks/gblocks.22/act/Tanh_output_0 0=16
BinaryOp         /gblocks/gblocks.22/act/Mul 2 1 /gblocks/gblocks.22/Split_output_0_splitncnn_0 /gblocks/gblocks.22/act/Tanh_output_0 /gblocks/gblocks.22/act/Mul_output_0 0=2
Concat           /gblocks/gblocks.22/Concat 2 1 /gblocks/gblocks.22/Split_output_1 /gblocks/gblocks.22/conv/Conv_output_0 /gblocks/gblocks.22/Concat_output_0 0=0
BinaryOp         /gblocks/gblocks.22/Mul  2 1 /gblocks/gblocks.22/act/Mul_output_0 /gblocks/gblocks.22/Concat_output_0 /gblocks/gblocks.22/Mul_output_0 0=2
Convolution      /gblocks/gblocks.22/fc2/Conv 1 1 /gblocks/gblocks.22/Mul_output_0 /gblocks/gblocks.22/fc2/Conv_output_0 0=64 1=3 11=3 2=1 12=1 3=1 13=1 4=1 14=1 15=1 16=1 5=1 6=55296
Split            splitncnn_88             1 2 /gblocks/gblocks.22/fc2/Conv_output_0 /gblocks/gblocks.22/fc2/Conv_output_0_splitncnn_0 /gblocks/gblocks.22/fc2/Conv_output_0_splitncnn_1
Softplus         /gblocks/gblocks.22/act_1/Softplus 1 1 /gblocks/gblocks.22/fc2/Conv_output_0_splitncnn_1 /gblocks/gblocks.22/act_1/Softplus_output_0
UnaryOp          /gblocks/gblocks.22/act_1/Tanh 1 1 /gblocks/gblocks.22/act_1/Softplus_output_0 /gblocks/gblocks.22/act_1/Tanh_output_0 0=16
BinaryOp         /gblocks/gblocks.22/act_1/Mul 2 1 /gblocks/gblocks.22/fc2/Conv_output_0_splitncnn_0 /gblocks/gblocks.22/act_1/Tanh_output_0 /gblocks/gblocks.22/act_1/Mul_output_0 0=2
BinaryOp         /gblocks/gblocks.22/Sub  1 1 /gblocks/gblocks.21/Add_output_0_splitncnn_0 /gblocks/gblocks.22/Sub_output_0 0=1 1=1 2=5.000000e-01
BinaryOp         /gblocks/gblocks.22/Add  2 1 /gblocks/gblocks.22/act_1/Mul_output_0 /gblocks/gblocks.22/Sub_output_0 /gblocks/gblocks.22/Add_output_0 0=0
Split            splitncnn_89             1 3 /gblocks/gblocks.22/Add_output_0 /gblocks/gblocks.22/Add_output_0_splitncnn_0 /gblocks/gblocks.22/Add_output_0_splitncnn_1 /gblocks/gblocks.22/Add_output_0_splitncnn_2
Reduction        /gblocks/gblocks.23/norm/ReduceMean 1 1 /gblocks/gblocks.22/Add_output_0_splitncnn_2 /gblocks/gblocks.23/norm/ReduceMean_output_0 0=3 1=0 -23303=1,0 4=1 5=1
BinaryOp         /gblocks/gblocks.23/norm/Sub 2 1 /gblocks/gblocks.22/Add_output_0_splitncnn_1 /gblocks/gblocks.23/norm/ReduceMean_output_0 /gblocks/gblocks.23/norm/Sub_output_0 0=1
Split            splitncnn_90             1 2 /gblocks/gblocks.23/norm/Sub_output_0 /gblocks/gblocks.23/norm/Sub_output_0_splitncnn_0 /gblocks/gblocks.23/norm/Sub_output_0_splitncnn_1
BinaryOp         /gblocks/gblocks.23/norm/Pow 1 1 /gblocks/gblocks.23/norm/Sub_output_0_splitncnn_1 /gblocks/gblocks.23/norm/Pow_output_0 0=6 1=1 2=2.000000e+00
Reduction        /gblocks/gblocks.23/norm/ReduceMean_1 1 1 /gblocks/gblocks.23/norm/Pow_output_0 /gblocks/gblocks.23/norm/ReduceMean_1_output_0 0=3 1=0 -23303=1,0 4=1 5=1
BinaryOp         /gblocks/gblocks.23/norm/Add 1 1 /gblocks/gblocks.23/norm/ReduceMean_1_output_0 /gblocks/gblocks.23/norm/Add_output_0 0=0 1=1 2=1.000000e-06
UnaryOp          /gblocks/gblocks.23/norm/Sqrt 1 1 /gblocks/gblocks.23/norm/Add_output_0 /gblocks/gblocks.23/norm/Sqrt_output_0 0=5
BinaryOp         /gblocks/gblocks.23/norm/Div 2 1 /gblocks/gblocks.23/norm/Sub_output_0_splitncnn_0 /gblocks/gblocks.23/norm/Sqrt_output_0 /gblocks/gblocks.23/norm/Div_output_0 0=3
ExpandDims       /gblocks/gblocks.23/norm/Unsqueeze 2 1 gblocks.23.norm.weight /gblocks/gblocks.23/norm/Constant_2_output_0 /gblocks/gblocks.23/norm/Unsqueeze_output_0 -23303=0
ExpandDims       /gblocks/gblocks.23/norm/Unsqueeze_1 2 1 /gblocks/gblocks.23/norm/Unsqueeze_output_0 /gblocks/gblocks.23/norm/Constant_3_output_0 /gblocks/gblocks.23/norm/Unsqueeze_1_output_0 -23303=0
BinaryOp         /gblocks/gblocks.23/norm/Mul 2 1 /gblocks/gblocks.23/norm/Unsqueeze_1_output_0 /gblocks/gblocks.23/norm/Div_output_0 /gblocks/gblocks.23/norm/Mul_output_0 0=2
ExpandDims       /gblocks/gblocks.23/norm/Unsqueeze_2 2 1 gblocks.23.norm.bias /gblocks/gblocks.23/norm/Constant_4_output_0 /gblocks/gblocks.23/norm/Unsqueeze_2_output_0 -23303=0
ExpandDims       /gblocks/gblocks.23/norm/Unsqueeze_3 2 1 /gblocks/gblocks.23/norm/Unsqueeze_2_output_0 /gblocks/gblocks.23/norm/Constant_5_output_0 /gblocks/gblocks.23/norm/Unsqueeze_3_output_0 -23303=0
BinaryOp         /gblocks/gblocks.23/norm/Add_1 2 1 /gblocks/gblocks.23/norm/Mul_output_0 /gblocks/gblocks.23/norm/Unsqueeze_3_output_0 /gblocks/gblocks.23/norm/Add_1_output_0 0=0
Convolution      /gblocks/gblocks.23/fc1/Conv 1 1 /gblocks/gblocks.23/norm/Add_1_output_0 /gblocks/gblocks.23/fc1/Conv_output_0 0=192 1=3 11=3 2=1 12=1 3=1 13=1 4=1 14=1 15=1 16=1 5=1 6=110592
Slice            /gblocks/gblocks.23/Split 2 3 /gblocks/gblocks.23/fc1/Conv_output_0 onnx::Split_230_splitncnn_1 /gblocks/gblocks.23/Split_output_0 /gblocks/gblocks.23/Split_output_1 /gblocks/gblocks.23/Split_output_2 -23300=3,-233,-233,-233 1=0
Split            splitncnn_91             1 2 /gblocks/gblocks.23/Split_output_0 /gblocks/gblocks.23/Split_output_0_splitncnn_0 /gblocks/gblocks.23/Split_output_0_splitncnn_1
ConvolutionDepthWise /gblocks/gblocks.23/conv/Conv 1 1 /gblocks/gblocks.23/Split_output_2 /gblocks/gblocks.23/conv/Conv_output_0 0=64 1=7 11=7 2=1 12=1 3=1 13=1 4=3 14=3 15=3 16=3 5=1 6=3136 7=64
Softplus         /gblocks/gblocks.23/act/Softplus 1 1 /gblocks/gblocks.23/Split_output_0_splitncnn_1 /gblocks/gblocks.23/act/Softplus_output_0
UnaryOp          /gblocks/gblocks.23/act/Tanh 1 1 /gblocks/gblocks.23/act/Softplus_output_0 /gblocks/gblocks.23/act/Tanh_output_0 0=16
BinaryOp         /gblocks/gblocks.23/act/Mul 2 1 /gblocks/gblocks.23/Split_output_0_splitncnn_0 /gblocks/gblocks.23/act/Tanh_output_0 /gblocks/gblocks.23/act/Mul_output_0 0=2
Concat           /gblocks/gblocks.23/Concat 2 1 /gblocks/gblocks.23/Split_output_1 /gblocks/gblocks.23/conv/Conv_output_0 /gblocks/gblocks.23/Concat_output_0 0=0
BinaryOp         /gblocks/gblocks.23/Mul  2 1 /gblocks/gblocks.23/act/Mul_output_0 /gblocks/gblocks.23/Concat_output_0 /gblocks/gblocks.23/Mul_output_0 0=2
Convolution      /gblocks/gblocks.23/fc2/Conv 1 1 /gblocks/gblocks.23/Mul_output_0 /gblocks/gblocks.23/fc2/Conv_output_0 0=64 1=3 11=3 2=1 12=1 3=1 13=1 4=1 14=1 15=1 16=1 5=1 6=55296
Split            splitncnn_92             1 2 /gblocks/gblocks.23/fc2/Conv_output_0 /gblocks/gblocks.23/fc2/Conv_output_0_splitncnn_0 /gblocks/gblocks.23/fc2/Conv_output_0_splitncnn_1
Softplus         /gblocks/gblocks.23/act_1/Softplus 1 1 /gblocks/gblocks.23/fc2/Conv_output_0_splitncnn_1 /gblocks/gblocks.23/act_1/Softplus_output_0
UnaryOp          /gblocks/gblocks.23/act_1/Tanh 1 1 /gblocks/gblocks.23/act_1/Softplus_output_0 /gblocks/gblocks.23/act_1/Tanh_output_0 0=16
BinaryOp         /gblocks/gblocks.23/act_1/Mul 2 1 /gblocks/gblocks.23/fc2/Conv_output_0_splitncnn_0 /gblocks/gblocks.23/act_1/Tanh_output_0 /gblocks/gblocks.23/act_1/Mul_output_0 0=2
BinaryOp         /gblocks/gblocks.23/Sub  1 1 /gblocks/gblocks.22/Add_output_0_splitncnn_0 /gblocks/gblocks.23/Sub_output_0 0=1 1=1 2=5.000000e-01
BinaryOp         /gblocks/gblocks.23/Add  2 1 /gblocks/gblocks.23/act_1/Mul_output_0 /gblocks/gblocks.23/Sub_output_0 /gblocks/gblocks.23/Add_output_0 0=0
Split            splitncnn_93             1 3 /gblocks/gblocks.23/Add_output_0 /gblocks/gblocks.23/Add_output_0_splitncnn_0 /gblocks/gblocks.23/Add_output_0_splitncnn_1 /gblocks/gblocks.23/Add_output_0_splitncnn_2
Reduction        /gblocks/gblocks.24/norm/ReduceMean 1 1 /gblocks/gblocks.23/Add_output_0_splitncnn_2 /gblocks/gblocks.24/norm/ReduceMean_output_0 0=3 1=0 -23303=1,0 4=1 5=1
BinaryOp         /gblocks/gblocks.24/norm/Sub 2 1 /gblocks/gblocks.23/Add_output_0_splitncnn_1 /gblocks/gblocks.24/norm/ReduceMean_output_0 /gblocks/gblocks.24/norm/Sub_output_0 0=1
Split            splitncnn_94             1 2 /gblocks/gblocks.24/norm/Sub_output_0 /gblocks/gblocks.24/norm/Sub_output_0_splitncnn_0 /gblocks/gblocks.24/norm/Sub_output_0_splitncnn_1
BinaryOp         /gblocks/gblocks.24/norm/Pow 1 1 /gblocks/gblocks.24/norm/Sub_output_0_splitncnn_1 /gblocks/gblocks.24/norm/Pow_output_0 0=6 1=1 2=2.000000e+00
Reduction        /gblocks/gblocks.24/norm/ReduceMean_1 1 1 /gblocks/gblocks.24/norm/Pow_output_0 /gblocks/gblocks.24/norm/ReduceMean_1_output_0 0=3 1=0 -23303=1,0 4=1 5=1
BinaryOp         /gblocks/gblocks.24/norm/Add 1 1 /gblocks/gblocks.24/norm/ReduceMean_1_output_0 /gblocks/gblocks.24/norm/Add_output_0 0=0 1=1 2=1.000000e-06
UnaryOp          /gblocks/gblocks.24/norm/Sqrt 1 1 /gblocks/gblocks.24/norm/Add_output_0 /gblocks/gblocks.24/norm/Sqrt_output_0 0=5
BinaryOp         /gblocks/gblocks.24/norm/Div 2 1 /gblocks/gblocks.24/norm/Sub_output_0_splitncnn_0 /gblocks/gblocks.24/norm/Sqrt_output_0 /gblocks/gblocks.24/norm/Div_output_0 0=3
ExpandDims       /gblocks/gblocks.24/norm/Unsqueeze 2 1 gblocks.24.norm.weight /gblocks/gblocks.24/norm/Constant_2_output_0 /gblocks/gblocks.24/norm/Unsqueeze_output_0 -23303=0
ExpandDims       /gblocks/gblocks.24/norm/Unsqueeze_1 2 1 /gblocks/gblocks.24/norm/Unsqueeze_output_0 /gblocks/gblocks.24/norm/Constant_3_output_0 /gblocks/gblocks.24/norm/Unsqueeze_1_output_0 -23303=0
BinaryOp         /gblocks/gblocks.24/norm/Mul 2 1 /gblocks/gblocks.24/norm/Unsqueeze_1_output_0 /gblocks/gblocks.24/norm/Div_output_0 /gblocks/gblocks.24/norm/Mul_output_0 0=2
ExpandDims       /gblocks/gblocks.24/norm/Unsqueeze_2 2 1 gblocks.24.norm.bias /gblocks/gblocks.24/norm/Constant_4_output_0 /gblocks/gblocks.24/norm/Unsqueeze_2_output_0 -23303=0
ExpandDims       /gblocks/gblocks.24/norm/Unsqueeze_3 2 1 /gblocks/gblocks.24/norm/Unsqueeze_2_output_0 /gblocks/gblocks.24/norm/Constant_5_output_0 /gblocks/gblocks.24/norm/Unsqueeze_3_output_0 -23303=0
BinaryOp         /gblocks/gblocks.24/norm/Add_1 2 1 /gblocks/gblocks.24/norm/Mul_output_0 /gblocks/gblocks.24/norm/Unsqueeze_3_output_0 /gblocks/gblocks.24/norm/Add_1_output_0 0=0
Convolution      /gblocks/gblocks.24/fc1/Conv 1 1 /gblocks/gblocks.24/norm/Add_1_output_0 /gblocks/gblocks.24/fc1/Conv_output_0 0=192 1=3 11=3 2=1 12=1 3=1 13=1 4=1 14=1 15=1 16=1 5=1 6=110592
Slice            /gblocks/gblocks.24/Split 2 3 /gblocks/gblocks.24/fc1/Conv_output_0 onnx::Split_230_splitncnn_0 /gblocks/gblocks.24/Split_output_0 /gblocks/gblocks.24/Split_output_1 /gblocks/gblocks.24/Split_output_2 -23300=3,-233,-233,-233 1=0
Split            splitncnn_95             1 2 /gblocks/gblocks.24/Split_output_0 /gblocks/gblocks.24/Split_output_0_splitncnn_0 /gblocks/gblocks.24/Split_output_0_splitncnn_1
ConvolutionDepthWise /gblocks/gblocks.24/conv/Conv 1 1 /gblocks/gblocks.24/Split_output_2 /gblocks/gblocks.24/conv/Conv_output_0 0=64 1=7 11=7 2=1 12=1 3=1 13=1 4=3 14=3 15=3 16=3 5=1 6=3136 7=64
Softplus         /gblocks/gblocks.24/act/Softplus 1 1 /gblocks/gblocks.24/Split_output_0_splitncnn_1 /gblocks/gblocks.24/act/Softplus_output_0
UnaryOp          /gblocks/gblocks.24/act/Tanh 1 1 /gblocks/gblocks.24/act/Softplus_output_0 /gblocks/gblocks.24/act/Tanh_output_0 0=16
BinaryOp         /gblocks/gblocks.24/act/Mul 2 1 /gblocks/gblocks.24/Split_output_0_splitncnn_0 /gblocks/gblocks.24/act/Tanh_output_0 /gblocks/gblocks.24/act/Mul_output_0 0=2
Concat           /gblocks/gblocks.24/Concat 2 1 /gblocks/gblocks.24/Split_output_1 /gblocks/gblocks.24/conv/Conv_output_0 /gblocks/gblocks.24/Concat_output_0 0=0
BinaryOp         /gblocks/gblocks.24/Mul  2 1 /gblocks/gblocks.24/act/Mul_output_0 /gblocks/gblocks.24/Concat_output_0 /gblocks/gblocks.24/Mul_output_0 0=2
Convolution      /gblocks/gblocks.24/fc2/Conv 1 1 /gblocks/gblocks.24/Mul_output_0 /gblocks/gblocks.24/fc2/Conv_output_0 0=64 1=3 11=3 2=1 12=1 3=1 13=1 4=1 14=1 15=1 16=1 5=1 6=55296
Split            splitncnn_96             1 2 /gblocks/gblocks.24/fc2/Conv_output_0 /gblocks/gblocks.24/fc2/Conv_output_0_splitncnn_0 /gblocks/gblocks.24/fc2/Conv_output_0_splitncnn_1
Softplus         /gblocks/gblocks.24/act_1/Softplus 1 1 /gblocks/gblocks.24/fc2/Conv_output_0_splitncnn_1 /gblocks/gblocks.24/act_1/Softplus_output_0
UnaryOp          /gblocks/gblocks.24/act_1/Tanh 1 1 /gblocks/gblocks.24/act_1/Softplus_output_0 /gblocks/gblocks.24/act_1/Tanh_output_0 0=16
BinaryOp         /gblocks/gblocks.24/act_1/Mul 2 1 /gblocks/gblocks.24/fc2/Conv_output_0_splitncnn_0 /gblocks/gblocks.24/act_1/Tanh_output_0 /gblocks/gblocks.24/act_1/Mul_output_0 0=2
BinaryOp         /gblocks/gblocks.24/Sub  1 1 /gblocks/gblocks.23/Add_output_0_splitncnn_0 /gblocks/gblocks.24/Sub_output_0 0=1 1=1 2=5.000000e-01
BinaryOp         /gblocks/gblocks.24/Add  2 1 /gblocks/gblocks.24/act_1/Mul_output_0 /gblocks/gblocks.24/Sub_output_0 /gblocks/gblocks.24/Add_output_0 0=0
Convolution      /gblocks/gblocks.25/Conv 1 1 /gblocks/gblocks.24/Add_output_0 /gblocks/gblocks.25/Conv_output_0 0=128 1=3 11=3 2=1 12=1 3=1 13=1 4=1 14=1 15=1 16=1 5=1 6=73728
Split            splitncnn_97             1 2 /gblocks/gblocks.25/Conv_output_0 /gblocks/gblocks.25/Conv_output_0_splitncnn_0 /gblocks/gblocks.25/Conv_output_0_splitncnn_1
Softplus         /gblocks/gblocks.26/Softplus 1 1 /gblocks/gblocks.25/Conv_output_0_splitncnn_1 /gblocks/gblocks.26/Softplus_output_0
UnaryOp          /gblocks/gblocks.26/Tanh 1 1 /gblocks/gblocks.26/Softplus_output_0 /gblocks/gblocks.26/Tanh_output_0 0=16
BinaryOp         /gblocks/gblocks.26/Mul  2 1 /gblocks/gblocks.25/Conv_output_0_splitncnn_0 /gblocks/gblocks.26/Tanh_output_0 /gblocks/gblocks.26/Mul_output_0 0=2
Convolution      /gblocks/gblocks.27/Conv 1 1 /gblocks/gblocks.26/Mul_output_0 /gblocks/gblocks.27/Conv_output_0 0=64 1=3 11=3 2=1 12=1 3=1 13=1 4=1 14=1 15=1 16=1 5=1 6=73728
Split            splitncnn_98             1 2 /gblocks/gblocks.27/Conv_output_0 /gblocks/gblocks.27/Conv_output_0_splitncnn_0 /gblocks/gblocks.27/Conv_output_0_splitncnn_1
Softplus         /gblocks/gblocks.28/Softplus 1 1 /gblocks/gblocks.27/Conv_output_0_splitncnn_1 /gblocks/gblocks.28/Softplus_output_0
UnaryOp          /gblocks/gblocks.28/Tanh 1 1 /gblocks/gblocks.28/Softplus_output_0 /gblocks/gblocks.28/Tanh_output_0 0=16
BinaryOp         /gblocks/gblocks.28/Mul  2 1 /gblocks/gblocks.27/Conv_output_0_splitncnn_0 /gblocks/gblocks.28/Tanh_output_0 /gblocks/gblocks.28/Mul_output_0 0=2
Convolution      /gblocks/gblocks.29/Conv 1 1 /gblocks/gblocks.28/Mul_output_0 /gblocks/gblocks.29/Conv_output_0 0=64 1=1 11=1 2=1 12=1 3=1 13=1 4=0 14=0 15=0 16=0 5=1 6=4096
Convolution      /shortcut/block/block.0/Conv 1 1 input_splitncnn_1 /shortcut/block/block.0/Conv_output_0 0=64 1=3 11=3 2=1 12=1 3=1 13=1 4=1 14=1 15=1 16=1 5=1 6=1728
Split            splitncnn_99             1 2 /shortcut/block/block.0/Conv_output_0 /shortcut/block/block.0/Conv_output_0_splitncnn_0 /shortcut/block/block.0/Conv_output_0_splitncnn_1
Softplus         /shortcut/block/block.1/Softplus 1 1 /shortcut/block/block.0/Conv_output_0_splitncnn_1 /shortcut/block/block.1/Softplus_output_0
UnaryOp          /shortcut/block/block.1/Tanh 1 1 /shortcut/block/block.1/Softplus_output_0 /shortcut/block/block.1/Tanh_output_0 0=16
BinaryOp         /shortcut/block/block.1/Mul 2 1 /shortcut/block/block.0/Conv_output_0_splitncnn_0 /shortcut/block/block.1/Tanh_output_0 /shortcut/block/block.1/Mul_output_0 0=2
Convolution      /shortcut/block/block.2/Conv 1 1 /shortcut/block/block.1/Mul_output_0 /shortcut/block/block.2/Conv_output_0 0=64 1=3 11=3 2=1 12=1 3=1 13=1 4=1 14=1 15=1 16=1 5=1 6=36864
Split            splitncnn_100            1 2 /shortcut/block/block.2/Conv_output_0 /shortcut/block/block.2/Conv_output_0_splitncnn_0 /shortcut/block/block.2/Conv_output_0_splitncnn_1
Softplus         /shortcut/block/block.3/Softplus 1 1 /shortcut/block/block.2/Conv_output_0_splitncnn_1 /shortcut/block/block.3/Softplus_output_0
UnaryOp          /shortcut/block/block.3/Tanh 1 1 /shortcut/block/block.3/Softplus_output_0 /shortcut/block/block.3/Tanh_output_0 0=16
BinaryOp         /shortcut/block/block.3/Mul 2 1 /shortcut/block/block.2/Conv_output_0_splitncnn_0 /shortcut/block/block.3/Tanh_output_0 /shortcut/block/block.3/Mul_output_0 0=2
Convolution      /shortcut/conv11/Conv    1 1 input_splitncnn_0 /shortcut/conv11/Conv_output_0 0=64 1=1 11=1 2=1 12=1 3=1 13=1 4=0 14=0 15=0 16=0 5=1 6=192
BinaryOp         /shortcut/Add            2 1 /shortcut/block/block.3/Mul_output_0 /shortcut/conv11/Conv_output_0 /shortcut/Add_output_0 0=0
BinaryOp         /Sub                     1 1 /shortcut/Add_output_0 /Sub_output_0 0=1 1=1 2=5.000000e-01
BinaryOp         /Add                     2 1 /gblocks/gblocks.29/Conv_output_0 /Sub_output_0 /Add_output_0 0=0
Convolution      /upsampler/upsampler.0/Conv 1 1 /Add_output_0 /upsampler/upsampler.0/Conv_output_0 0=48 1=3 11=3 2=1 12=1 3=1 13=1 4=1 14=1 15=1 16=1 5=1 6=27648
PixelShuffle     /upsampler/upsampler.1/DepthToSpace 1 1 /upsampler/upsampler.0/Conv_output_0 output 0=4 1=0
